node {
  name: "global_step/Initializer/zeros"
  op: "Const"
  attr {
    key: "_class"
    value {
      list {
        s: "loc:@global_step"
      }
    }
  }
  attr {
    key: "_output_shapes"
    value {
      list {
        shape {
        }
      }
    }
  }
  attr {
    key: "dtype"
    value {
      type: DT_INT64
    }
  }
  attr {
    key: "value"
    value {
      tensor {
        dtype: DT_INT64
        tensor_shape {
        }
        int64_val: 0
      }
    }
  }
}
node {
  name: "global_step"
  op: "VariableV2"
  attr {
    key: "_class"
    value {
      list {
        s: "loc:@global_step"
      }
    }
  }
  attr {
    key: "_output_shapes"
    value {
      list {
        shape {
        }
      }
    }
  }
  attr {
    key: "container"
    value {
      s: ""
    }
  }
  attr {
    key: "dtype"
    value {
      type: DT_INT64
    }
  }
  attr {
    key: "shape"
    value {
      shape {
      }
    }
  }
  attr {
    key: "shared_name"
    value {
      s: ""
    }
  }
}
node {
  name: "global_step/Assign"
  op: "Assign"
  input: "global_step"
  input: "global_step/Initializer/zeros"
  attr {
    key: "T"
    value {
      type: DT_INT64
    }
  }
  attr {
    key: "_class"
    value {
      list {
        s: "loc:@global_step"
      }
    }
  }
  attr {
    key: "_output_shapes"
    value {
      list {
        shape {
        }
      }
    }
  }
  attr {
    key: "use_locking"
    value {
      b: true
    }
  }
  attr {
    key: "validate_shape"
    value {
      b: true
    }
  }
}
node {
  name: "global_step/read"
  op: "Identity"
  input: "global_step"
  attr {
    key: "T"
    value {
      type: DT_INT64
    }
  }
  attr {
    key: "_class"
    value {
      list {
        s: "loc:@global_step"
      }
    }
  }
  attr {
    key: "_output_shapes"
    value {
      list {
        shape {
        }
      }
    }
  }
}
node {
  name: "input_producer/Const"
  op: "Const"
  attr {
    key: "_output_shapes"
    value {
      list {
        shape {
          dim {
            size: 11
          }
        }
      }
    }
  }
  attr {
    key: "dtype"
    value {
      type: DT_STRING
    }
  }
  attr {
    key: "value"
    value {
      tensor {
        dtype: DT_STRING
        tensor_shape {
          dim {
            size: 11
          }
        }
        string_val: "..\\data\\train\\words-0.tfrecord"
        string_val: "..\\data\\train\\words-1.tfrecord"
        string_val: "..\\data\\train\\words-10.tfrecord"
        string_val: "..\\data\\train\\words-2.tfrecord"
        string_val: "..\\data\\train\\words-3.tfrecord"
        string_val: "..\\data\\train\\words-4.tfrecord"
        string_val: "..\\data\\train\\words-5.tfrecord"
        string_val: "..\\data\\train\\words-6.tfrecord"
        string_val: "..\\data\\train\\words-7.tfrecord"
        string_val: "..\\data\\train\\words-8.tfrecord"
        string_val: "..\\data\\train\\words-9.tfrecord"
      }
    }
  }
}
node {
  name: "input_producer/Size"
  op: "Const"
  attr {
    key: "_output_shapes"
    value {
      list {
        shape {
        }
      }
    }
  }
  attr {
    key: "dtype"
    value {
      type: DT_INT32
    }
  }
  attr {
    key: "value"
    value {
      tensor {
        dtype: DT_INT32
        tensor_shape {
        }
        int_val: 11
      }
    }
  }
}
node {
  name: "input_producer/Greater/y"
  op: "Const"
  attr {
    key: "_output_shapes"
    value {
      list {
        shape {
        }
      }
    }
  }
  attr {
    key: "dtype"
    value {
      type: DT_INT32
    }
  }
  attr {
    key: "value"
    value {
      tensor {
        dtype: DT_INT32
        tensor_shape {
        }
        int_val: 0
      }
    }
  }
}
node {
  name: "input_producer/Greater"
  op: "Greater"
  input: "input_producer/Size"
  input: "input_producer/Greater/y"
  attr {
    key: "T"
    value {
      type: DT_INT32
    }
  }
  attr {
    key: "_output_shapes"
    value {
      list {
        shape {
        }
      }
    }
  }
}
node {
  name: "input_producer/Assert/Const"
  op: "Const"
  attr {
    key: "_output_shapes"
    value {
      list {
        shape {
        }
      }
    }
  }
  attr {
    key: "dtype"
    value {
      type: DT_STRING
    }
  }
  attr {
    key: "value"
    value {
      tensor {
        dtype: DT_STRING
        tensor_shape {
        }
        string_val: "string_input_producer requires a non-null input tensor"
      }
    }
  }
}
node {
  name: "input_producer/Assert/Assert/data_0"
  op: "Const"
  attr {
    key: "_output_shapes"
    value {
      list {
        shape {
        }
      }
    }
  }
  attr {
    key: "dtype"
    value {
      type: DT_STRING
    }
  }
  attr {
    key: "value"
    value {
      tensor {
        dtype: DT_STRING
        tensor_shape {
        }
        string_val: "string_input_producer requires a non-null input tensor"
      }
    }
  }
}
node {
  name: "input_producer/Assert/Assert"
  op: "Assert"
  input: "input_producer/Greater"
  input: "input_producer/Assert/Assert/data_0"
  attr {
    key: "T"
    value {
      list {
        type: DT_STRING
      }
    }
  }
  attr {
    key: "summarize"
    value {
      i: 3
    }
  }
}
node {
  name: "input_producer/Identity"
  op: "Identity"
  input: "input_producer/Const"
  input: "^input_producer/Assert/Assert"
  attr {
    key: "T"
    value {
      type: DT_STRING
    }
  }
  attr {
    key: "_output_shapes"
    value {
      list {
        shape {
          dim {
            size: 11
          }
        }
      }
    }
  }
}
node {
  name: "input_producer/RandomShuffle"
  op: "RandomShuffle"
  input: "input_producer/Identity"
  attr {
    key: "T"
    value {
      type: DT_STRING
    }
  }
  attr {
    key: "_output_shapes"
    value {
      list {
        shape {
          dim {
            size: 11
          }
        }
      }
    }
  }
  attr {
    key: "seed"
    value {
      i: 0
    }
  }
  attr {
    key: "seed2"
    value {
      i: 0
    }
  }
}
node {
  name: "input_producer"
  op: "FIFOQueueV2"
  attr {
    key: "_output_shapes"
    value {
      list {
        shape {
        }
      }
    }
  }
  attr {
    key: "capacity"
    value {
      i: 512
    }
  }
  attr {
    key: "component_types"
    value {
      list {
        type: DT_STRING
      }
    }
  }
  attr {
    key: "container"
    value {
      s: ""
    }
  }
  attr {
    key: "shapes"
    value {
      list {
        shape {
        }
      }
    }
  }
  attr {
    key: "shared_name"
    value {
      s: ""
    }
  }
}
node {
  name: "input_producer/input_producer_EnqueueMany"
  op: "QueueEnqueueManyV2"
  input: "input_producer"
  input: "input_producer/RandomShuffle"
  attr {
    key: "Tcomponents"
    value {
      list {
        type: DT_STRING
      }
    }
  }
  attr {
    key: "timeout_ms"
    value {
      i: -1
    }
  }
}
node {
  name: "input_producer/input_producer_Close"
  op: "QueueCloseV2"
  input: "input_producer"
  attr {
    key: "cancel_pending_enqueues"
    value {
      b: false
    }
  }
}
node {
  name: "input_producer/input_producer_Close_1"
  op: "QueueCloseV2"
  input: "input_producer"
  attr {
    key: "cancel_pending_enqueues"
    value {
      b: true
    }
  }
}
node {
  name: "input_producer/input_producer_Size"
  op: "QueueSizeV2"
  input: "input_producer"
  attr {
    key: "_output_shapes"
    value {
      list {
        shape {
        }
      }
    }
  }
}
node {
  name: "input_producer/ToFloat"
  op: "Cast"
  input: "input_producer/input_producer_Size"
  attr {
    key: "DstT"
    value {
      type: DT_FLOAT
    }
  }
  attr {
    key: "SrcT"
    value {
      type: DT_INT32
    }
  }
  attr {
    key: "_output_shapes"
    value {
      list {
        shape {
        }
      }
    }
  }
}
node {
  name: "input_producer/mul/y"
  op: "Const"
  attr {
    key: "_output_shapes"
    value {
      list {
        shape {
        }
      }
    }
  }
  attr {
    key: "dtype"
    value {
      type: DT_FLOAT
    }
  }
  attr {
    key: "value"
    value {
      tensor {
        dtype: DT_FLOAT
        tensor_shape {
        }
        float_val: 0.001953125
      }
    }
  }
}
node {
  name: "input_producer/mul"
  op: "Mul"
  input: "input_producer/ToFloat"
  input: "input_producer/mul/y"
  attr {
    key: "T"
    value {
      type: DT_FLOAT
    }
  }
  attr {
    key: "_output_shapes"
    value {
      list {
        shape {
        }
      }
    }
  }
}
node {
  name: "input_producer/fraction_of_512_full/tags"
  op: "Const"
  attr {
    key: "_output_shapes"
    value {
      list {
        shape {
        }
      }
    }
  }
  attr {
    key: "dtype"
    value {
      type: DT_STRING
    }
  }
  attr {
    key: "value"
    value {
      tensor {
        dtype: DT_STRING
        tensor_shape {
        }
        string_val: "input_producer/fraction_of_512_full"
      }
    }
  }
}
node {
  name: "input_producer/fraction_of_512_full"
  op: "ScalarSummary"
  input: "input_producer/fraction_of_512_full/tags"
  input: "input_producer/mul"
  attr {
    key: "T"
    value {
      type: DT_FLOAT
    }
  }
  attr {
    key: "_output_shapes"
    value {
      list {
        shape {
        }
      }
    }
  }
}
node {
  name: "TFRecordReaderV2"
  op: "TFRecordReaderV2"
  device: "/device:CPU:0"
  attr {
    key: "_output_shapes"
    value {
      list {
        shape {
        }
      }
    }
  }
  attr {
    key: "compression_type"
    value {
      s: ""
    }
  }
  attr {
    key: "container"
    value {
      s: ""
    }
  }
  attr {
    key: "shared_name"
    value {
      s: ""
    }
  }
}
node {
  name: "ReaderReadV2"
  op: "ReaderReadV2"
  input: "TFRecordReaderV2"
  input: "input_producer"
  device: "/device:CPU:0"
  attr {
    key: "_output_shapes"
    value {
      list {
        shape {
        }
        shape {
        }
      }
    }
  }
}
node {
  name: "ParseSingleExample/key_image/encoded"
  op: "Const"
  device: "/device:CPU:0"
  attr {
    key: "_output_shapes"
    value {
      list {
        shape {
        }
      }
    }
  }
  attr {
    key: "dtype"
    value {
      type: DT_STRING
    }
  }
  attr {
    key: "value"
    value {
      tensor {
        dtype: DT_STRING
        tensor_shape {
        }
        string_val: ""
      }
    }
  }
}
node {
  name: "ParseSingleExample/Reshape/shape"
  op: "Const"
  device: "/device:CPU:0"
  attr {
    key: "_output_shapes"
    value {
      list {
        shape {
          dim {
          }
        }
      }
    }
  }
  attr {
    key: "dtype"
    value {
      type: DT_INT32
    }
  }
  attr {
    key: "value"
    value {
      tensor {
        dtype: DT_INT32
        tensor_shape {
          dim {
          }
        }
      }
    }
  }
}
node {
  name: "ParseSingleExample/Reshape"
  op: "Reshape"
  input: "ParseSingleExample/key_image/encoded"
  input: "ParseSingleExample/Reshape/shape"
  device: "/device:CPU:0"
  attr {
    key: "T"
    value {
      type: DT_STRING
    }
  }
  attr {
    key: "Tshape"
    value {
      type: DT_INT32
    }
  }
  attr {
    key: "_output_shapes"
    value {
      list {
        shape {
        }
      }
    }
  }
}
node {
  name: "ParseSingleExample/key_image/filename"
  op: "Const"
  device: "/device:CPU:0"
  attr {
    key: "_output_shapes"
    value {
      list {
        shape {
        }
      }
    }
  }
  attr {
    key: "dtype"
    value {
      type: DT_STRING
    }
  }
  attr {
    key: "value"
    value {
      tensor {
        dtype: DT_STRING
        tensor_shape {
        }
        string_val: ""
      }
    }
  }
}
node {
  name: "ParseSingleExample/Reshape_1/shape"
  op: "Const"
  device: "/device:CPU:0"
  attr {
    key: "_output_shapes"
    value {
      list {
        shape {
          dim {
          }
        }
      }
    }
  }
  attr {
    key: "dtype"
    value {
      type: DT_INT32
    }
  }
  attr {
    key: "value"
    value {
      tensor {
        dtype: DT_INT32
        tensor_shape {
          dim {
          }
        }
      }
    }
  }
}
node {
  name: "ParseSingleExample/Reshape_1"
  op: "Reshape"
  input: "ParseSingleExample/key_image/filename"
  input: "ParseSingleExample/Reshape_1/shape"
  device: "/device:CPU:0"
  attr {
    key: "T"
    value {
      type: DT_STRING
    }
  }
  attr {
    key: "Tshape"
    value {
      type: DT_INT32
    }
  }
  attr {
    key: "_output_shapes"
    value {
      list {
        shape {
        }
      }
    }
  }
}
node {
  name: "ParseSingleExample/key_image/width"
  op: "Const"
  device: "/device:CPU:0"
  attr {
    key: "_output_shapes"
    value {
      list {
        shape {
        }
      }
    }
  }
  attr {
    key: "dtype"
    value {
      type: DT_INT64
    }
  }
  attr {
    key: "value"
    value {
      tensor {
        dtype: DT_INT64
        tensor_shape {
        }
        int64_val: 1
      }
    }
  }
}
node {
  name: "ParseSingleExample/Reshape_2/shape"
  op: "Const"
  device: "/device:CPU:0"
  attr {
    key: "_output_shapes"
    value {
      list {
        shape {
          dim {
            size: 1
          }
        }
      }
    }
  }
  attr {
    key: "dtype"
    value {
      type: DT_INT32
    }
  }
  attr {
    key: "value"
    value {
      tensor {
        dtype: DT_INT32
        tensor_shape {
          dim {
            size: 1
          }
        }
        int_val: 1
      }
    }
  }
}
node {
  name: "ParseSingleExample/Reshape_2"
  op: "Reshape"
  input: "ParseSingleExample/key_image/width"
  input: "ParseSingleExample/Reshape_2/shape"
  device: "/device:CPU:0"
  attr {
    key: "T"
    value {
      type: DT_INT64
    }
  }
  attr {
    key: "Tshape"
    value {
      type: DT_INT32
    }
  }
  attr {
    key: "_output_shapes"
    value {
      list {
        shape {
          dim {
            size: 1
          }
        }
      }
    }
  }
}
node {
  name: "ParseSingleExample/key_text/length"
  op: "Const"
  device: "/device:CPU:0"
  attr {
    key: "_output_shapes"
    value {
      list {
        shape {
        }
      }
    }
  }
  attr {
    key: "dtype"
    value {
      type: DT_INT64
    }
  }
  attr {
    key: "value"
    value {
      tensor {
        dtype: DT_INT64
        tensor_shape {
        }
        int64_val: 1
      }
    }
  }
}
node {
  name: "ParseSingleExample/Reshape_3/shape"
  op: "Const"
  device: "/device:CPU:0"
  attr {
    key: "_output_shapes"
    value {
      list {
        shape {
          dim {
            size: 1
          }
        }
      }
    }
  }
  attr {
    key: "dtype"
    value {
      type: DT_INT32
    }
  }
  attr {
    key: "value"
    value {
      tensor {
        dtype: DT_INT32
        tensor_shape {
          dim {
            size: 1
          }
        }
        int_val: 1
      }
    }
  }
}
node {
  name: "ParseSingleExample/Reshape_3"
  op: "Reshape"
  input: "ParseSingleExample/key_text/length"
  input: "ParseSingleExample/Reshape_3/shape"
  device: "/device:CPU:0"
  attr {
    key: "T"
    value {
      type: DT_INT64
    }
  }
  attr {
    key: "Tshape"
    value {
      type: DT_INT32
    }
  }
  attr {
    key: "_output_shapes"
    value {
      list {
        shape {
          dim {
            size: 1
          }
        }
      }
    }
  }
}
node {
  name: "ParseSingleExample/key_text/string"
  op: "Const"
  device: "/device:CPU:0"
  attr {
    key: "_output_shapes"
    value {
      list {
        shape {
        }
      }
    }
  }
  attr {
    key: "dtype"
    value {
      type: DT_STRING
    }
  }
  attr {
    key: "value"
    value {
      tensor {
        dtype: DT_STRING
        tensor_shape {
        }
        string_val: ""
      }
    }
  }
}
node {
  name: "ParseSingleExample/Reshape_4/shape"
  op: "Const"
  device: "/device:CPU:0"
  attr {
    key: "_output_shapes"
    value {
      list {
        shape {
          dim {
          }
        }
      }
    }
  }
  attr {
    key: "dtype"
    value {
      type: DT_INT32
    }
  }
  attr {
    key: "value"
    value {
      tensor {
        dtype: DT_INT32
        tensor_shape {
          dim {
          }
        }
      }
    }
  }
}
node {
  name: "ParseSingleExample/Reshape_4"
  op: "Reshape"
  input: "ParseSingleExample/key_text/string"
  input: "ParseSingleExample/Reshape_4/shape"
  device: "/device:CPU:0"
  attr {
    key: "T"
    value {
      type: DT_STRING
    }
  }
  attr {
    key: "Tshape"
    value {
      type: DT_INT32
    }
  }
  attr {
    key: "_output_shapes"
    value {
      list {
        shape {
        }
      }
    }
  }
}
node {
  name: "ParseSingleExample/ParseSingleExample"
  op: "ParseSingleExample"
  input: "ReaderReadV2:1"
  input: "ParseSingleExample/Reshape"
  input: "ParseSingleExample/Reshape_1"
  input: "ParseSingleExample/Reshape_2"
  input: "ParseSingleExample/Reshape_3"
  input: "ParseSingleExample/Reshape_4"
  device: "/device:CPU:0"
  attr {
    key: "Tdense"
    value {
      list {
        type: DT_STRING
        type: DT_STRING
        type: DT_INT64
        type: DT_INT64
        type: DT_STRING
      }
    }
  }
  attr {
    key: "_output_shapes"
    value {
      list {
        shape {
          dim {
            size: -1
          }
          dim {
            size: 1
          }
        }
        shape {
          dim {
            size: -1
          }
        }
        shape {
          dim {
            size: 1
          }
        }
        shape {
        }
        shape {
        }
        shape {
          dim {
            size: 1
          }
        }
        shape {
          dim {
            size: 1
          }
        }
        shape {
        }
      }
    }
  }
  attr {
    key: "dense_keys"
    value {
      list {
        s: "image/encoded"
        s: "image/filename"
        s: "image/width"
        s: "text/length"
        s: "text/string"
      }
    }
  }
  attr {
    key: "dense_shapes"
    value {
      list {
        shape {
        }
        shape {
        }
        shape {
          dim {
            size: 1
          }
        }
        shape {
          dim {
            size: 1
          }
        }
        shape {
        }
      }
    }
  }
  attr {
    key: "num_sparse"
    value {
      i: 1
    }
  }
  attr {
    key: "sparse_keys"
    value {
      list {
        s: "image/labels"
      }
    }
  }
  attr {
    key: "sparse_types"
    value {
      list {
        type: DT_INT64
      }
    }
  }
}
node {
  name: "DecodeJpeg"
  op: "DecodeJpeg"
  input: "ParseSingleExample/ParseSingleExample:3"
  device: "/device:CPU:0"
  attr {
    key: "_output_shapes"
    value {
      list {
        shape {
          dim {
            size: -1
          }
          dim {
            size: -1
          }
          dim {
            size: 1
          }
        }
      }
    }
  }
  attr {
    key: "acceptable_fraction"
    value {
      f: 1.0
    }
  }
  attr {
    key: "channels"
    value {
      i: 1
    }
  }
  attr {
    key: "dct_method"
    value {
      s: ""
    }
  }
  attr {
    key: "fancy_upscaling"
    value {
      b: true
    }
  }
  attr {
    key: "ratio"
    value {
      i: 1
    }
  }
  attr {
    key: "try_recover_truncated"
    value {
      b: false
    }
  }
}
node {
  name: "Cast"
  op: "Cast"
  input: "ParseSingleExample/ParseSingleExample:5"
  device: "/device:CPU:0"
  attr {
    key: "DstT"
    value {
      type: DT_INT32
    }
  }
  attr {
    key: "SrcT"
    value {
      type: DT_INT64
    }
  }
  attr {
    key: "_output_shapes"
    value {
      list {
        shape {
          dim {
            size: 1
          }
        }
      }
    }
  }
}
node {
  name: "SerializeSparse"
  op: "SerializeSparse"
  input: "ParseSingleExample/ParseSingleExample"
  input: "ParseSingleExample/ParseSingleExample:1"
  input: "ParseSingleExample/ParseSingleExample:2"
  device: "/device:CPU:0"
  attr {
    key: "T"
    value {
      type: DT_INT64
    }
  }
  attr {
    key: "_output_shapes"
    value {
      list {
        shape {
          dim {
            size: 3
          }
        }
      }
    }
  }
  attr {
    key: "out_type"
    value {
      type: DT_STRING
    }
  }
}
node {
  name: "convert_image/Cast"
  op: "Cast"
  input: "DecodeJpeg"
  device: "/device:CPU:0"
  attr {
    key: "DstT"
    value {
      type: DT_FLOAT
    }
  }
  attr {
    key: "SrcT"
    value {
      type: DT_UINT8
    }
  }
  attr {
    key: "_output_shapes"
    value {
      list {
        shape {
          dim {
            size: -1
          }
          dim {
            size: -1
          }
          dim {
            size: 1
          }
        }
      }
    }
  }
}
node {
  name: "convert_image/y"
  op: "Const"
  device: "/device:CPU:0"
  attr {
    key: "_output_shapes"
    value {
      list {
        shape {
        }
      }
    }
  }
  attr {
    key: "dtype"
    value {
      type: DT_FLOAT
    }
  }
  attr {
    key: "value"
    value {
      tensor {
        dtype: DT_FLOAT
        tensor_shape {
        }
        float_val: 0.003921568859368563
      }
    }
  }
}
node {
  name: "convert_image"
  op: "Mul"
  input: "convert_image/Cast"
  input: "convert_image/y"
  device: "/device:CPU:0"
  attr {
    key: "T"
    value {
      type: DT_FLOAT
    }
  }
  attr {
    key: "_output_shapes"
    value {
      list {
        shape {
          dim {
            size: -1
          }
          dim {
            size: -1
          }
          dim {
            size: 1
          }
        }
      }
    }
  }
}
node {
  name: "Sub/y"
  op: "Const"
  device: "/device:CPU:0"
  attr {
    key: "_output_shapes"
    value {
      list {
        shape {
        }
      }
    }
  }
  attr {
    key: "dtype"
    value {
      type: DT_FLOAT
    }
  }
  attr {
    key: "value"
    value {
      tensor {
        dtype: DT_FLOAT
        tensor_shape {
        }
        float_val: 0.5
      }
    }
  }
}
node {
  name: "Sub"
  op: "Sub"
  input: "convert_image"
  input: "Sub/y"
  device: "/device:CPU:0"
  attr {
    key: "T"
    value {
      type: DT_FLOAT
    }
  }
  attr {
    key: "_output_shapes"
    value {
      list {
        shape {
          dim {
            size: -1
          }
          dim {
            size: -1
          }
          dim {
            size: 1
          }
        }
      }
    }
  }
}
node {
  name: "Slice/begin"
  op: "Const"
  device: "/device:CPU:0"
  attr {
    key: "_output_shapes"
    value {
      list {
        shape {
          dim {
            size: 3
          }
        }
      }
    }
  }
  attr {
    key: "dtype"
    value {
      type: DT_INT32
    }
  }
  attr {
    key: "value"
    value {
      tensor {
        dtype: DT_INT32
        tensor_shape {
          dim {
            size: 3
          }
        }
        tensor_content: "\000\000\000\000\000\000\000\000\000\000\000\000"
      }
    }
  }
}
node {
  name: "Slice/size"
  op: "Const"
  device: "/device:CPU:0"
  attr {
    key: "_output_shapes"
    value {
      list {
        shape {
          dim {
            size: 3
          }
        }
      }
    }
  }
  attr {
    key: "dtype"
    value {
      type: DT_INT32
    }
  }
  attr {
    key: "value"
    value {
      tensor {
        dtype: DT_INT32
        tensor_shape {
          dim {
            size: 3
          }
        }
        tensor_content: "\001\000\000\000\377\377\377\377\377\377\377\377"
      }
    }
  }
}
node {
  name: "Slice"
  op: "Slice"
  input: "Sub"
  input: "Slice/begin"
  input: "Slice/size"
  device: "/device:CPU:0"
  attr {
    key: "Index"
    value {
      type: DT_INT32
    }
  }
  attr {
    key: "T"
    value {
      type: DT_FLOAT
    }
  }
  attr {
    key: "_output_shapes"
    value {
      list {
        shape {
          dim {
            size: 1
          }
          dim {
            size: -1
          }
          dim {
            size: 1
          }
        }
      }
    }
  }
}
node {
  name: "concat/axis"
  op: "Const"
  device: "/device:CPU:0"
  attr {
    key: "_output_shapes"
    value {
      list {
        shape {
        }
      }
    }
  }
  attr {
    key: "dtype"
    value {
      type: DT_INT32
    }
  }
  attr {
    key: "value"
    value {
      tensor {
        dtype: DT_INT32
        tensor_shape {
        }
        int_val: 0
      }
    }
  }
}
node {
  name: "concat"
  op: "ConcatV2"
  input: "Slice"
  input: "Sub"
  input: "concat/axis"
  device: "/device:CPU:0"
  attr {
    key: "N"
    value {
      i: 2
    }
  }
  attr {
    key: "T"
    value {
      type: DT_FLOAT
    }
  }
  attr {
    key: "Tidx"
    value {
      type: DT_INT32
    }
  }
  attr {
    key: "_output_shapes"
    value {
      list {
        shape {
          dim {
            size: -1
          }
          dim {
            size: -1
          }
          dim {
            size: 1
          }
        }
      }
    }
  }
}
node {
  name: "bucket_by_sequence_length/LessEqual/x"
  op: "Const"
  device: "/device:CPU:0"
  attr {
    key: "_output_shapes"
    value {
      list {
        shape {
          dim {
            size: 9
          }
        }
      }
    }
  }
  attr {
    key: "dtype"
    value {
      type: DT_INT32
    }
  }
  attr {
    key: "value"
    value {
      tensor {
        dtype: DT_INT32
        tensor_shape {
          dim {
            size: 9
          }
        }
        tensor_content: "…"
      }
    }
  }
}
node {
  name: "bucket_by_sequence_length/LessEqual"
  op: "LessEqual"
  input: "bucket_by_sequence_length/LessEqual/x"
  input: "Cast"
  device: "/device:CPU:0"
  attr {
    key: "T"
    value {
      type: DT_INT32
    }
  }
  attr {
    key: "_output_shapes"
    value {
      list {
        shape {
          dim {
            size: 9
          }
        }
      }
    }
  }
}
node {
  name: "bucket_by_sequence_length/Less/y"
  op: "Const"
  device: "/device:CPU:0"
  attr {
    key: "_output_shapes"
    value {
      list {
        shape {
          dim {
            size: 9
          }
        }
      }
    }
  }
  attr {
    key: "dtype"
    value {
      type: DT_INT32
    }
  }
  attr {
    key: "value"
    value {
      tensor {
        dtype: DT_INT32
        tensor_shape {
          dim {
            size: 9
          }
        }
        tensor_content: "…"
      }
    }
  }
}
node {
  name: "bucket_by_sequence_length/Less"
  op: "Less"
  input: "Cast"
  input: "bucket_by_sequence_length/Less/y"
  device: "/device:CPU:0"
  attr {
    key: "T"
    value {
      type: DT_INT32
    }
  }
  attr {
    key: "_output_shapes"
    value {
      list {
        shape {
          dim {
            size: 9
          }
        }
      }
    }
  }
}
node {
  name: "bucket_by_sequence_length/LogicalAnd"
  op: "LogicalAnd"
  input: "bucket_by_sequence_length/LessEqual"
  input: "bucket_by_sequence_length/Less"
  device: "/device:CPU:0"
  attr {
    key: "_output_shapes"
    value {
      list {
        shape {
          dim {
            size: 9
          }
        }
      }
    }
  }
}
node {
  name: "bucket_by_sequence_length/Where"
  op: "Where"
  input: "bucket_by_sequence_length/LogicalAnd"
  device: "/device:CPU:0"
  attr {
    key: "T"
    value {
      type: DT_BOOL
    }
  }
  attr {
    key: "_output_shapes"
    value {
      list {
        shape {
          dim {
            size: -1
          }
          dim {
            size: 1
          }
        }
      }
    }
  }
}
node {
  name: "bucket_by_sequence_length/Const"
  op: "Const"
  device: "/device:CPU:0"
  attr {
    key: "_output_shapes"
    value {
      list {
        shape {
          dim {
            size: 2
          }
        }
      }
    }
  }
  attr {
    key: "dtype"
    value {
      type: DT_INT32
    }
  }
  attr {
    key: "value"
    value {
      tensor {
        dtype: DT_INT32
        tensor_shape {
          dim {
            size: 2
          }
        }
        tensor_content: "\000\000\000\000\001\000\000\000"
      }
    }
  }
}
node {
  name: "bucket_by_sequence_length/Min"
  op: "Min"
  input: "bucket_by_sequence_length/Where"
  input: "bucket_by_sequence_length/Const"
  device: "/device:CPU:0"
  attr {
    key: "T"
    value {
      type: DT_INT64
    }
  }
  attr {
    key: "Tidx"
    value {
      type: DT_INT32
    }
  }
  attr {
    key: "_output_shapes"
    value {
      list {
        shape {
        }
      }
    }
  }
  attr {
    key: "keep_dims"
    value {
      b: false
    }
  }
}
node {
  name: "bucket_by_sequence_length/ToInt32"
  op: "Cast"
  input: "bucket_by_sequence_length/Min"
  device: "/device:CPU:0"
  attr {
    key: "DstT"
    value {
      type: DT_INT32
    }
  }
  attr {
    key: "SrcT"
    value {
      type: DT_INT64
    }
  }
  attr {
    key: "_output_shapes"
    value {
      list {
        shape {
        }
      }
    }
  }
}
node {
  name: "bucket_by_sequence_length/bucket/Const"
  op: "Const"
  device: "/device:CPU:0"
  attr {
    key: "_output_shapes"
    value {
      list {
        shape {
        }
      }
    }
  }
  attr {
    key: "dtype"
    value {
      type: DT_BOOL
    }
  }
  attr {
    key: "value"
    value {
      tensor {
        dtype: DT_BOOL
        tensor_shape {
        }
        bool_val: true
      }
    }
  }
}
node {
  name: "bucket_by_sequence_length/bucket/batch_size"
  op: "Const"
  device: "/device:CPU:0"
  attr {
    key: "_output_shapes"
    value {
      list {
        shape {
        }
      }
    }
  }
  attr {
    key: "dtype"
    value {
      type: DT_INT32
    }
  }
  attr {
    key: "value"
    value {
      tensor {
        dtype: DT_INT32
        tensor_shape {
        }
        int_val: 32
      }
    }
  }
}
node {
  name: "bucket_by_sequence_length/bucket/batch_size_1"
  op: "Const"
  device: "/device:CPU:0"
  attr {
    key: "_output_shapes"
    value {
      list {
        shape {
        }
      }
    }
  }
  attr {
    key: "dtype"
    value {
      type: DT_INT32
    }
  }
  attr {
    key: "value"
    value {
      tensor {
        dtype: DT_INT32
        tensor_shape {
        }
        int_val: 32
      }
    }
  }
}
node {
  name: "bucket_by_sequence_length/bucket/batch_size_2"
  op: "Const"
  device: "/device:CPU:0"
  attr {
    key: "_output_shapes"
    value {
      list {
        shape {
        }
      }
    }
  }
  attr {
    key: "dtype"
    value {
      type: DT_INT32
    }
  }
  attr {
    key: "value"
    value {
      tensor {
        dtype: DT_INT32
        tensor_shape {
        }
        int_val: 32
      }
    }
  }
}
node {
  name: "bucket_by_sequence_length/bucket/batch_size_3"
  op: "Const"
  device: "/device:CPU:0"
  attr {
    key: "_output_shapes"
    value {
      list {
        shape {
        }
      }
    }
  }
  attr {
    key: "dtype"
    value {
      type: DT_INT32
    }
  }
  attr {
    key: "value"
    value {
      tensor {
        dtype: DT_INT32
        tensor_shape {
        }
        int_val: 32
      }
    }
  }
}
node {
  name: "bucket_by_sequence_length/bucket/batch_size_4"
  op: "Const"
  device: "/device:CPU:0"
  attr {
    key: "_output_shapes"
    value {
      list {
        shape {
        }
      }
    }
  }
  attr {
    key: "dtype"
    value {
      type: DT_INT32
    }
  }
  attr {
    key: "value"
    value {
      tensor {
        dtype: DT_INT32
        tensor_shape {
        }
        int_val: 32
      }
    }
  }
}
node {
  name: "bucket_by_sequence_length/bucket/batch_size_5"
  op: "Const"
  device: "/device:CPU:0"
  attr {
    key: "_output_shapes"
    value {
      list {
        shape {
        }
      }
    }
  }
  attr {
    key: "dtype"
    value {
      type: DT_INT32
    }
  }
  attr {
    key: "value"
    value {
      tensor {
        dtype: DT_INT32
        tensor_shape {
        }
        int_val: 32
      }
    }
  }
}
node {
  name: "bucket_by_sequence_length/bucket/batch_size_6"
  op: "Const"
  device: "/device:CPU:0"
  attr {
    key: "_output_shapes"
    value {
      list {
        shape {
        }
      }
    }
  }
  attr {
    key: "dtype"
    value {
      type: DT_INT32
    }
  }
  attr {
    key: "value"
    value {
      tensor {
        dtype: DT_INT32
        tensor_shape {
        }
        int_val: 32
      }
    }
  }
}
node {
  name: "bucket_by_sequence_length/bucket/batch_size_7"
  op: "Const"
  device: "/device:CPU:0"
  attr {
    key: "_output_shapes"
    value {
      list {
        shape {
        }
      }
    }
  }
  attr {
    key: "dtype"
    value {
      type: DT_INT32
    }
  }
  attr {
    key: "value"
    value {
      tensor {
        dtype: DT_INT32
        tensor_shape {
        }
        int_val: 32
      }
    }
  }
}
node {
  name: "bucket_by_sequence_length/bucket/batch_size_8"
  op: "Const"
  device: "/device:CPU:0"
  attr {
    key: "_output_shapes"
    value {
      list {
        shape {
        }
      }
    }
  }
  attr {
    key: "dtype"
    value {
      type: DT_INT32
    }
  }
  attr {
    key: "value"
    value {
      tensor {
        dtype: DT_INT32
        tensor_shape {
        }
        int_val: 32
      }
    }
  }
}
node {
  name: "bucket_by_sequence_length/bucket/bucket_queue_0"
  op: "PaddingFIFOQueueV2"
  device: "/device:CPU:0"
  attr {
    key: "_output_shapes"
    value {
      list {
        shape {
        }
      }
    }
  }
  attr {
    key: "capacity"
    value {
      i: 512
    }
  }
  attr {
    key: "component_types"
    value {
      list {
        type: DT_INT32
        type: DT_FLOAT
        type: DT_STRING
        type: DT_INT64
        type: DT_STRING
        type: DT_STRING
      }
    }
  }
  attr {
    key: "container"
    value {
      s: ""
    }
  }
  attr {
    key: "shapes"
    value {
      list {
        shape {
          dim {
            size: 1
          }
        }
        shape {
          dim {
            size: -1
          }
          dim {
            size: -1
          }
          dim {
            size: 1
          }
        }
        shape {
          dim {
            size: 3
          }
        }
        shape {
          dim {
            size: 1
          }
        }
        shape {
        }
        shape {
        }
      }
    }
  }
  attr {
    key: "shared_name"
    value {
      s: ""
    }
  }
}
node {
  name: "bucket_by_sequence_length/bucket/bucket_queue_1"
  op: "PaddingFIFOQueueV2"
  device: "/device:CPU:0"
  attr {
    key: "_output_shapes"
    value {
      list {
        shape {
        }
      }
    }
  }
  attr {
    key: "capacity"
    value {
      i: 512
    }
  }
  attr {
    key: "component_types"
    value {
      list {
        type: DT_INT32
        type: DT_FLOAT
        type: DT_STRING
        type: DT_INT64
        type: DT_STRING
        type: DT_STRING
      }
    }
  }
  attr {
    key: "container"
    value {
      s: ""
    }
  }
  attr {
    key: "shapes"
    value {
      list {
        shape {
          dim {
            size: 1
          }
        }
        shape {
          dim {
            size: -1
          }
          dim {
            size: -1
          }
          dim {
            size: 1
          }
        }
        shape {
          dim {
            size: 3
          }
        }
        shape {
          dim {
            size: 1
          }
        }
        shape {
        }
        shape {
        }
      }
    }
  }
  attr {
    key: "shared_name"
    value {
      s: ""
    }
  }
}
node {
  name: "bucket_by_sequence_length/bucket/bucket_queue_2"
  op: "PaddingFIFOQueueV2"
  device: "/device:CPU:0"
  attr {
    key: "_output_shapes"
    value {
      list {
        shape {
        }
      }
    }
  }
  attr {
    key: "capacity"
    value {
      i: 512
    }
  }
  attr {
    key: "component_types"
    value {
      list {
        type: DT_INT32
        type: DT_FLOAT
        type: DT_STRING
        type: DT_INT64
        type: DT_STRING
        type: DT_STRING
      }
    }
  }
  attr {
    key: "container"
    value {
      s: ""
    }
  }
  attr {
    key: "shapes"
    value {
      list {
        shape {
          dim {
            size: 1
          }
        }
        shape {
          dim {
            size: -1
          }
          dim {
            size: -1
          }
          dim {
            size: 1
          }
        }
        shape {
          dim {
            size: 3
          }
        }
        shape {
          dim {
            size: 1
          }
        }
        shape {
        }
        shape {
        }
      }
    }
  }
  attr {
    key: "shared_name"
    value {
      s: ""
    }
  }
}
node {
  name: "bucket_by_sequence_length/bucket/bucket_queue_3"
  op: "PaddingFIFOQueueV2"
  device: "/device:CPU:0"
  attr {
    key: "_output_shapes"
    value {
      list {
        shape {
        }
      }
    }
  }
  attr {
    key: "capacity"
    value {
      i: 512
    }
  }
  attr {
    key: "component_types"
    value {
      list {
        type: DT_INT32
        type: DT_FLOAT
        type: DT_STRING
        type: DT_INT64
        type: DT_STRING
        type: DT_STRING
      }
    }
  }
  attr {
    key: "container"
    value {
      s: ""
    }
  }
  attr {
    key: "shapes"
    value {
      list {
        shape {
          dim {
            size: 1
          }
        }
        shape {
          dim {
            size: -1
          }
          dim {
            size: -1
          }
          dim {
            size: 1
          }
        }
        shape {
          dim {
            size: 3
          }
        }
        shape {
          dim {
            size: 1
          }
        }
        shape {
        }
        shape {
        }
      }
    }
  }
  attr {
    key: "shared_name"
    value {
      s: ""
    }
  }
}
node {
  name: "bucket_by_sequence_length/bucket/bucket_queue_4"
  op: "PaddingFIFOQueueV2"
  device: "/device:CPU:0"
  attr {
    key: "_output_shapes"
    value {
      list {
        shape {
        }
      }
    }
  }
  attr {
    key: "capacity"
    value {
      i: 512
    }
  }
  attr {
    key: "component_types"
    value {
      list {
        type: DT_INT32
        type: DT_FLOAT
        type: DT_STRING
        type: DT_INT64
        type: DT_STRING
        type: DT_STRING
      }
    }
  }
  attr {
    key: "container"
    value {
      s: ""
    }
  }
  attr {
    key: "shapes"
    value {
      list {
        shape {
          dim {
            size: 1
          }
        }
        shape {
          dim {
            size: -1
          }
          dim {
            size: -1
          }
          dim {
            size: 1
          }
        }
        shape {
          dim {
            size: 3
          }
        }
        shape {
          dim {
            size: 1
          }
        }
        shape {
        }
        shape {
        }
      }
    }
  }
  attr {
    key: "shared_name"
    value {
      s: ""
    }
  }
}
node {
  name: "bucket_by_sequence_length/bucket/bucket_queue_5"
  op: "PaddingFIFOQueueV2"
  device: "/device:CPU:0"
  attr {
    key: "_output_shapes"
    value {
      list {
        shape {
        }
      }
    }
  }
  attr {
    key: "capacity"
    value {
      i: 512
    }
  }
  attr {
    key: "component_types"
    value {
      list {
        type: DT_INT32
        type: DT_FLOAT
        type: DT_STRING
        type: DT_INT64
        type: DT_STRING
        type: DT_STRING
      }
    }
  }
  attr {
    key: "container"
    value {
      s: ""
    }
  }
  attr {
    key: "shapes"
    value {
      list {
        shape {
          dim {
            size: 1
          }
        }
        shape {
          dim {
            size: -1
          }
          dim {
            size: -1
          }
          dim {
            size: 1
          }
        }
        shape {
          dim {
            size: 3
          }
        }
        shape {
          dim {
            size: 1
          }
        }
        shape {
        }
        shape {
        }
      }
    }
  }
  attr {
    key: "shared_name"
    value {
      s: ""
    }
  }
}
node {
  name: "bucket_by_sequence_length/bucket/bucket_queue_6"
  op: "PaddingFIFOQueueV2"
  device: "/device:CPU:0"
  attr {
    key: "_output_shapes"
    value {
      list {
        shape {
        }
      }
    }
  }
  attr {
    key: "capacity"
    value {
      i: 512
    }
  }
  attr {
    key: "component_types"
    value {
      list {
        type: DT_INT32
        type: DT_FLOAT
        type: DT_STRING
        type: DT_INT64
        type: DT_STRING
        type: DT_STRING
      }
    }
  }
  attr {
    key: "container"
    value {
      s: ""
    }
  }
  attr {
    key: "shapes"
    value {
      list {
        shape {
          dim {
            size: 1
          }
        }
        shape {
          dim {
            size: -1
          }
          dim {
            size: -1
          }
          dim {
            size: 1
          }
        }
        shape {
          dim {
            size: 3
          }
        }
        shape {
          dim {
            size: 1
          }
        }
        shape {
        }
        shape {
        }
      }
    }
  }
  attr {
    key: "shared_name"
    value {
      s: ""
    }
  }
}
node {
  name: "bucket_by_sequence_length/bucket/bucket_queue_7"
  op: "PaddingFIFOQueueV2"
  device: "/device:CPU:0"
  attr {
    key: "_output_shapes"
    value {
      list {
        shape {
        }
      }
    }
  }
  attr {
    key: "capacity"
    value {
      i: 512
    }
  }
  attr {
    key: "component_types"
    value {
      list {
        type: DT_INT32
        type: DT_FLOAT
        type: DT_STRING
        type: DT_INT64
        type: DT_STRING
        type: DT_STRING
      }
    }
  }
  attr {
    key: "container"
    value {
      s: ""
    }
  }
  attr {
    key: "shapes"
    value {
      list {
        shape {
          dim {
            size: 1
          }
        }
        shape {
          dim {
            size: -1
          }
          dim {
            size: -1
          }
          dim {
            size: 1
          }
        }
        shape {
          dim {
            size: 3
          }
        }
        shape {
          dim {
            size: 1
          }
        }
        shape {
        }
        shape {
        }
      }
    }
  }
  attr {
    key: "shared_name"
    value {
      s: ""
    }
  }
}
node {
  name: "bucket_by_sequence_length/bucket/bucket_queue_8"
  op: "PaddingFIFOQueueV2"
  device: "/device:CPU:0"
  attr {
    key: "_output_shapes"
    value {
      list {
        shape {
        }
      }
    }
  }
  attr {
    key: "capacity"
    value {
      i: 512
    }
  }
  attr {
    key: "component_types"
    value {
      list {
        type: DT_INT32
        type: DT_FLOAT
        type: DT_STRING
        type: DT_INT64
        type: DT_STRING
        type: DT_STRING
      }
    }
  }
  attr {
    key: "container"
    value {
      s: ""
    }
  }
  attr {
    key: "shapes"
    value {
      list {
        shape {
          dim {
            size: 1
          }
        }
        shape {
          dim {
            size: -1
          }
          dim {
            size: -1
          }
          dim {
            size: 1
          }
        }
        shape {
          dim {
            size: 3
          }
        }
        shape {
          dim {
            size: 1
          }
        }
        shape {
        }
        shape {
        }
      }
    }
  }
  attr {
    key: "shared_name"
    value {
      s: ""
    }
  }
}
node {
  name: "bucket_by_sequence_length/bucket/top_queue"
  op: "PaddingFIFOQueueV2"
  device: "/device:CPU:0"
  attr {
    key: "_output_shapes"
    value {
      list {
        shape {
        }
      }
    }
  }
  attr {
    key: "capacity"
    value {
      i: 512
    }
  }
  attr {
    key: "component_types"
    value {
      list {
        type: DT_INT32
        type: DT_INT32
        type: DT_FLOAT
        type: DT_STRING
        type: DT_INT64
        type: DT_STRING
        type: DT_STRING
      }
    }
  }
  attr {
    key: "container"
    value {
      s: ""
    }
  }
  attr {
    key: "shapes"
    value {
      list {
        shape {
        }
        shape {
          dim {
            size: 32
          }
          dim {
            size: 1
          }
        }
        shape {
          dim {
            size: 32
          }
          dim {
            size: -1
          }
          dim {
            size: -1
          }
          dim {
            size: 1
          }
        }
        shape {
          dim {
            size: 32
          }
          dim {
            size: 3
          }
        }
        shape {
          dim {
            size: 32
          }
          dim {
            size: 1
          }
        }
        shape {
          dim {
            size: 32
          }
        }
        shape {
          dim {
            size: 32
          }
        }
      }
    }
  }
  attr {
    key: "shared_name"
    value {
      s: ""
    }
  }
}
node {
  name: "bucket_by_sequence_length/bucket/Equal/y"
  op: "Const"
  device: "/device:CPU:0"
  attr {
    key: "_output_shapes"
    value {
      list {
        shape {
        }
      }
    }
  }
  attr {
    key: "dtype"
    value {
      type: DT_INT32
    }
  }
  attr {
    key: "value"
    value {
      tensor {
        dtype: DT_INT32
        tensor_shape {
        }
        int_val: 0
      }
    }
  }
}
node {
  name: "bucket_by_sequence_length/bucket/Equal"
  op: "Equal"
  input: "bucket_by_sequence_length/ToInt32"
  input: "bucket_by_sequence_length/bucket/Equal/y"
  device: "/device:CPU:0"
  attr {
    key: "T"
    value {
      type: DT_INT32
    }
  }
  attr {
    key: "_output_shapes"
    value {
      list {
        shape {
        }
      }
    }
  }
}
node {
  name: "bucket_by_sequence_length/bucket/cond/Switch"
  op: "Switch"
  input: "bucket_by_sequence_length/bucket/Equal"
  input: "bucket_by_sequence_length/bucket/Equal"
  device: "/device:CPU:0"
  attr {
    key: "T"
    value {
      type: DT_BOOL
    }
  }
  attr {
    key: "_output_shapes"
    value {
      list {
        shape {
        }
        shape {
        }
      }
    }
  }
}
node {
  name: "bucket_by_sequence_length/bucket/cond/switch_t"
  op: "Identity"
  input: "bucket_by_sequence_length/bucket/cond/Switch:1"
  device: "/device:CPU:0"
  attr {
    key: "T"
    value {
      type: DT_BOOL
    }
  }
  attr {
    key: "_output_shapes"
    value {
      list {
        shape {
        }
      }
    }
  }
}
node {
  name: "bucket_by_sequence_length/bucket/cond/switch_f"
  op: "Identity"
  input: "bucket_by_sequence_length/bucket/cond/Switch"
  device: "/device:CPU:0"
  attr {
    key: "T"
    value {
      type: DT_BOOL
    }
  }
  attr {
    key: "_output_shapes"
    value {
      list {
        shape {
        }
      }
    }
  }
}
node {
  name: "bucket_by_sequence_length/bucket/cond/pred_id"
  op: "Identity"
  input: "bucket_by_sequence_length/bucket/Equal"
  device: "/device:CPU:0"
  attr {
    key: "T"
    value {
      type: DT_BOOL
    }
  }
  attr {
    key: "_output_shapes"
    value {
      list {
        shape {
        }
      }
    }
  }
}
node {
  name: "bucket_by_sequence_length/bucket/cond/bucket_queue_0_enqueue"
  op: "QueueEnqueueV2"
  input: "bucket_by_sequence_length/bucket/cond/bucket_queue_0_enqueue/Switch:1"
  input: "bucket_by_sequence_length/bucket/cond/bucket_queue_0_enqueue/Switch_1:1"
  input: "bucket_by_sequence_length/bucket/cond/bucket_queue_0_enqueue/Switch_2:1"
  input: "bucket_by_sequence_length/bucket/cond/bucket_queue_0_enqueue/Switch_3:1"
  input: "bucket_by_sequence_length/bucket/cond/bucket_queue_0_enqueue/Switch_4:1"
  input: "bucket_by_sequence_length/bucket/cond/bucket_queue_0_enqueue/Switch_5:1"
  input: "bucket_by_sequence_length/bucket/cond/bucket_queue_0_enqueue/Switch_6:1"
  device: "/device:CPU:0"
  attr {
    key: "Tcomponents"
    value {
      list {
        type: DT_INT32
        type: DT_FLOAT
        type: DT_STRING
        type: DT_INT64
        type: DT_STRING
        type: DT_STRING
      }
    }
  }
  attr {
    key: "timeout_ms"
    value {
      i: -1
    }
  }
}
node {
  name: "bucket_by_sequence_length/bucket/cond/bucket_queue_0_enqueue/Switch"
  op: "Switch"
  input: "bucket_by_sequence_length/bucket/bucket_queue_0"
  input: "bucket_by_sequence_length/bucket/cond/pred_id"
  device: "/device:CPU:0"
  attr {
    key: "T"
    value {
      type: DT_RESOURCE
    }
  }
  attr {
    key: "_class"
    value {
      list {
        s: "loc:@bucket_by_sequence_length/bucket/bucket_queue_0"
      }
    }
  }
  attr {
    key: "_output_shapes"
    value {
      list {
        shape {
        }
        shape {
        }
      }
    }
  }
}
node {
  name: "bucket_by_sequence_length/bucket/cond/bucket_queue_0_enqueue/Switch_1"
  op: "Switch"
  input: "Cast"
  input: "bucket_by_sequence_length/bucket/cond/pred_id"
  device: "/device:CPU:0"
  attr {
    key: "T"
    value {
      type: DT_INT32
    }
  }
  attr {
    key: "_class"
    value {
      list {
        s: "loc:@Cast"
      }
    }
  }
  attr {
    key: "_output_shapes"
    value {
      list {
        shape {
          dim {
            size: 1
          }
        }
        shape {
          dim {
            size: 1
          }
        }
      }
    }
  }
}
node {
  name: "bucket_by_sequence_length/bucket/cond/bucket_queue_0_enqueue/Switch_2"
  op: "Switch"
  input: "concat"
  input: "bucket_by_sequence_length/bucket/cond/pred_id"
  device: "/device:CPU:0"
  attr {
    key: "T"
    value {
      type: DT_FLOAT
    }
  }
  attr {
    key: "_class"
    value {
      list {
        s: "loc:@concat"
      }
    }
  }
  attr {
    key: "_output_shapes"
    value {
      list {
        shape {
          dim {
            size: -1
          }
          dim {
            size: -1
          }
          dim {
            size: 1
          }
        }
        shape {
          dim {
            size: -1
          }
          dim {
            size: -1
          }
          dim {
            size: 1
          }
        }
      }
    }
  }
}
node {
  name: "bucket_by_sequence_length/bucket/cond/bucket_queue_0_enqueue/Switch_3"
  op: "Switch"
  input: "SerializeSparse"
  input: "bucket_by_sequence_length/bucket/cond/pred_id"
  device: "/device:CPU:0"
  attr {
    key: "T"
    value {
      type: DT_STRING
    }
  }
  attr {
    key: "_class"
    value {
      list {
        s: "loc:@SerializeSparse"
      }
    }
  }
  attr {
    key: "_output_shapes"
    value {
      list {
        shape {
          dim {
            size: 3
          }
        }
        shape {
          dim {
            size: 3
          }
        }
      }
    }
  }
}
node {
  name: "bucket_by_sequence_length/bucket/cond/bucket_queue_0_enqueue/Switch_4"
  op: "Switch"
  input: "ParseSingleExample/ParseSingleExample:6"
  input: "bucket_by_sequence_length/bucket/cond/pred_id"
  device: "/device:CPU:0"
  attr {
    key: "T"
    value {
      type: DT_INT64
    }
  }
  attr {
    key: "_class"
    value {
      list {
        s: "loc:@ParseSingleExample/ParseSingleExample"
      }
    }
  }
  attr {
    key: "_output_shapes"
    value {
      list {
        shape {
          dim {
            size: 1
          }
        }
        shape {
          dim {
            size: 1
          }
        }
      }
    }
  }
}
node {
  name: "bucket_by_sequence_length/bucket/cond/bucket_queue_0_enqueue/Switch_5"
  op: "Switch"
  input: "ParseSingleExample/ParseSingleExample:7"
  input: "bucket_by_sequence_length/bucket/cond/pred_id"
  device: "/device:CPU:0"
  attr {
    key: "T"
    value {
      type: DT_STRING
    }
  }
  attr {
    key: "_class"
    value {
      list {
        s: "loc:@ParseSingleExample/ParseSingleExample"
      }
    }
  }
  attr {
    key: "_output_shapes"
    value {
      list {
        shape {
        }
        shape {
        }
      }
    }
  }
}
node {
  name: "bucket_by_sequence_length/bucket/cond/bucket_queue_0_enqueue/Switch_6"
  op: "Switch"
  input: "ParseSingleExample/ParseSingleExample:4"
  input: "bucket_by_sequence_length/bucket/cond/pred_id"
  device: "/device:CPU:0"
  attr {
    key: "T"
    value {
      type: DT_STRING
    }
  }
  attr {
    key: "_class"
    value {
      list {
        s: "loc:@ParseSingleExample/ParseSingleExample"
      }
    }
  }
  attr {
    key: "_output_shapes"
    value {
      list {
        shape {
        }
        shape {
        }
      }
    }
  }
}
node {
  name: "bucket_by_sequence_length/bucket/cond/control_dependency"
  op: "Identity"
  input: "bucket_by_sequence_length/bucket/cond/switch_t"
  input: "^bucket_by_sequence_length/bucket/cond/bucket_queue_0_enqueue"
  device: "/device:CPU:0"
  attr {
    key: "T"
    value {
      type: DT_BOOL
    }
  }
  attr {
    key: "_class"
    value {
      list {
        s: "loc:@bucket_by_sequence_length/bucket/cond/switch_t"
      }
    }
  }
  attr {
    key: "_output_shapes"
    value {
      list {
        shape {
        }
      }
    }
  }
}
node {
  name: "bucket_by_sequence_length/bucket/cond/NoOp"
  op: "NoOp"
  input: "^bucket_by_sequence_length/bucket/cond/switch_f"
  device: "/device:CPU:0"
}
node {
  name: "bucket_by_sequence_length/bucket/cond/control_dependency_1"
  op: "Identity"
  input: "bucket_by_sequence_length/bucket/cond/switch_f"
  input: "^bucket_by_sequence_length/bucket/cond/NoOp"
  device: "/device:CPU:0"
  attr {
    key: "T"
    value {
      type: DT_BOOL
    }
  }
  attr {
    key: "_class"
    value {
      list {
        s: "loc:@bucket_by_sequence_length/bucket/cond/switch_f"
      }
    }
  }
  attr {
    key: "_output_shapes"
    value {
      list {
        shape {
        }
      }
    }
  }
}
node {
  name: "bucket_by_sequence_length/bucket/cond/Merge"
  op: "Merge"
  input: "bucket_by_sequence_length/bucket/cond/control_dependency_1"
  input: "bucket_by_sequence_length/bucket/cond/control_dependency"
  device: "/device:CPU:0"
  attr {
    key: "N"
    value {
      i: 2
    }
  }
  attr {
    key: "T"
    value {
      type: DT_BOOL
    }
  }
  attr {
    key: "_output_shapes"
    value {
      list {
        shape {
        }
        shape {
        }
      }
    }
  }
}
node {
  name: "bucket_by_sequence_length/bucket/Equal_1/y"
  op: "Const"
  device: "/device:CPU:0"
  attr {
    key: "_output_shapes"
    value {
      list {
        shape {
        }
      }
    }
  }
  attr {
    key: "dtype"
    value {
      type: DT_INT32
    }
  }
  attr {
    key: "value"
    value {
      tensor {
        dtype: DT_INT32
        tensor_shape {
        }
        int_val: 1
      }
    }
  }
}
node {
  name: "bucket_by_sequence_length/bucket/Equal_1"
  op: "Equal"
  input: "bucket_by_sequence_length/ToInt32"
  input: "bucket_by_sequence_length/bucket/Equal_1/y"
  device: "/device:CPU:0"
  attr {
    key: "T"
    value {
      type: DT_INT32
    }
  }
  attr {
    key: "_output_shapes"
    value {
      list {
        shape {
        }
      }
    }
  }
}
node {
  name: "bucket_by_sequence_length/bucket/cond_1/Switch"
  op: "Switch"
  input: "bucket_by_sequence_length/bucket/Equal_1"
  input: "bucket_by_sequence_length/bucket/Equal_1"
  device: "/device:CPU:0"
  attr {
    key: "T"
    value {
      type: DT_BOOL
    }
  }
  attr {
    key: "_output_shapes"
    value {
      list {
        shape {
        }
        shape {
        }
      }
    }
  }
}
node {
  name: "bucket_by_sequence_length/bucket/cond_1/switch_t"
  op: "Identity"
  input: "bucket_by_sequence_length/bucket/cond_1/Switch:1"
  device: "/device:CPU:0"
  attr {
    key: "T"
    value {
      type: DT_BOOL
    }
  }
  attr {
    key: "_output_shapes"
    value {
      list {
        shape {
        }
      }
    }
  }
}
node {
  name: "bucket_by_sequence_length/bucket/cond_1/switch_f"
  op: "Identity"
  input: "bucket_by_sequence_length/bucket/cond_1/Switch"
  device: "/device:CPU:0"
  attr {
    key: "T"
    value {
      type: DT_BOOL
    }
  }
  attr {
    key: "_output_shapes"
    value {
      list {
        shape {
        }
      }
    }
  }
}
node {
  name: "bucket_by_sequence_length/bucket/cond_1/pred_id"
  op: "Identity"
  input: "bucket_by_sequence_length/bucket/Equal_1"
  device: "/device:CPU:0"
  attr {
    key: "T"
    value {
      type: DT_BOOL
    }
  }
  attr {
    key: "_output_shapes"
    value {
      list {
        shape {
        }
      }
    }
  }
}
node {
  name: "bucket_by_sequence_length/bucket/cond_1/bucket_queue_1_enqueue"
  op: "QueueEnqueueV2"
  input: "bucket_by_sequence_length/bucket/cond_1/bucket_queue_1_enqueue/Switch:1"
  input: "bucket_by_sequence_length/bucket/cond_1/bucket_queue_1_enqueue/Switch_1:1"
  input: "bucket_by_sequence_length/bucket/cond_1/bucket_queue_1_enqueue/Switch_2:1"
  input: "bucket_by_sequence_length/bucket/cond_1/bucket_queue_1_enqueue/Switch_3:1"
  input: "bucket_by_sequence_length/bucket/cond_1/bucket_queue_1_enqueue/Switch_4:1"
  input: "bucket_by_sequence_length/bucket/cond_1/bucket_queue_1_enqueue/Switch_5:1"
  input: "bucket_by_sequence_length/bucket/cond_1/bucket_queue_1_enqueue/Switch_6:1"
  device: "/device:CPU:0"
  attr {
    key: "Tcomponents"
    value {
      list {
        type: DT_INT32
        type: DT_FLOAT
        type: DT_STRING
        type: DT_INT64
        type: DT_STRING
        type: DT_STRING
      }
    }
  }
  attr {
    key: "timeout_ms"
    value {
      i: -1
    }
  }
}
node {
  name: "bucket_by_sequence_length/bucket/cond_1/bucket_queue_1_enqueue/Switch"
  op: "Switch"
  input: "bucket_by_sequence_length/bucket/bucket_queue_1"
  input: "bucket_by_sequence_length/bucket/cond_1/pred_id"
  device: "/device:CPU:0"
  attr {
    key: "T"
    value {
      type: DT_RESOURCE
    }
  }
  attr {
    key: "_class"
    value {
      list {
        s: "loc:@bucket_by_sequence_length/bucket/bucket_queue_1"
      }
    }
  }
  attr {
    key: "_output_shapes"
    value {
      list {
        shape {
        }
        shape {
        }
      }
    }
  }
}
node {
  name: "bucket_by_sequence_length/bucket/cond_1/bucket_queue_1_enqueue/Switch_1"
  op: "Switch"
  input: "Cast"
  input: "bucket_by_sequence_length/bucket/cond_1/pred_id"
  device: "/device:CPU:0"
  attr {
    key: "T"
    value {
      type: DT_INT32
    }
  }
  attr {
    key: "_class"
    value {
      list {
        s: "loc:@Cast"
      }
    }
  }
  attr {
    key: "_output_shapes"
    value {
      list {
        shape {
          dim {
            size: 1
          }
        }
        shape {
          dim {
            size: 1
          }
        }
      }
    }
  }
}
node {
  name: "bucket_by_sequence_length/bucket/cond_1/bucket_queue_1_enqueue/Switch_2"
  op: "Switch"
  input: "concat"
  input: "bucket_by_sequence_length/bucket/cond_1/pred_id"
  device: "/device:CPU:0"
  attr {
    key: "T"
    value {
      type: DT_FLOAT
    }
  }
  attr {
    key: "_class"
    value {
      list {
        s: "loc:@concat"
      }
    }
  }
  attr {
    key: "_output_shapes"
    value {
      list {
        shape {
          dim {
            size: -1
          }
          dim {
            size: -1
          }
          dim {
            size: 1
          }
        }
        shape {
          dim {
            size: -1
          }
          dim {
            size: -1
          }
          dim {
            size: 1
          }
        }
      }
    }
  }
}
node {
  name: "bucket_by_sequence_length/bucket/cond_1/bucket_queue_1_enqueue/Switch_3"
  op: "Switch"
  input: "SerializeSparse"
  input: "bucket_by_sequence_length/bucket/cond_1/pred_id"
  device: "/device:CPU:0"
  attr {
    key: "T"
    value {
      type: DT_STRING
    }
  }
  attr {
    key: "_class"
    value {
      list {
        s: "loc:@SerializeSparse"
      }
    }
  }
  attr {
    key: "_output_shapes"
    value {
      list {
        shape {
          dim {
            size: 3
          }
        }
        shape {
          dim {
            size: 3
          }
        }
      }
    }
  }
}
node {
  name: "bucket_by_sequence_length/bucket/cond_1/bucket_queue_1_enqueue/Switch_4"
  op: "Switch"
  input: "ParseSingleExample/ParseSingleExample:6"
  input: "bucket_by_sequence_length/bucket/cond_1/pred_id"
  device: "/device:CPU:0"
  attr {
    key: "T"
    value {
      type: DT_INT64
    }
  }
  attr {
    key: "_class"
    value {
      list {
        s: "loc:@ParseSingleExample/ParseSingleExample"
      }
    }
  }
  attr {
    key: "_output_shapes"
    value {
      list {
        shape {
          dim {
            size: 1
          }
        }
        shape {
          dim {
            size: 1
          }
        }
      }
    }
  }
}
node {
  name: "bucket_by_sequence_length/bucket/cond_1/bucket_queue_1_enqueue/Switch_5"
  op: "Switch"
  input: "ParseSingleExample/ParseSingleExample:7"
  input: "bucket_by_sequence_length/bucket/cond_1/pred_id"
  device: "/device:CPU:0"
  attr {
    key: "T"
    value {
      type: DT_STRING
    }
  }
  attr {
    key: "_class"
    value {
      list {
        s: "loc:@ParseSingleExample/ParseSingleExample"
      }
    }
  }
  attr {
    key: "_output_shapes"
    value {
      list {
        shape {
        }
        shape {
        }
      }
    }
  }
}
node {
  name: "bucket_by_sequence_length/bucket/cond_1/bucket_queue_1_enqueue/Switch_6"
  op: "Switch"
  input: "ParseSingleExample/ParseSingleExample:4"
  input: "bucket_by_sequence_length/bucket/cond_1/pred_id"
  device: "/device:CPU:0"
  attr {
    key: "T"
    value {
      type: DT_STRING
    }
  }
  attr {
    key: "_class"
    value {
      list {
        s: "loc:@ParseSingleExample/ParseSingleExample"
      }
    }
  }
  attr {
    key: "_output_shapes"
    value {
      list {
        shape {
        }
        shape {
        }
      }
    }
  }
}
node {
  name: "bucket_by_sequence_length/bucket/cond_1/control_dependency"
  op: "Identity"
  input: "bucket_by_sequence_length/bucket/cond_1/switch_t"
  input: "^bucket_by_sequence_length/bucket/cond_1/bucket_queue_1_enqueue"
  device: "/device:CPU:0"
  attr {
    key: "T"
    value {
      type: DT_BOOL
    }
  }
  attr {
    key: "_class"
    value {
      list {
        s: "loc:@bucket_by_sequence_length/bucket/cond_1/switch_t"
      }
    }
  }
  attr {
    key: "_output_shapes"
    value {
      list {
        shape {
        }
      }
    }
  }
}
node {
  name: "bucket_by_sequence_length/bucket/cond_1/NoOp"
  op: "NoOp"
  input: "^bucket_by_sequence_length/bucket/cond_1/switch_f"
  device: "/device:CPU:0"
}
node {
  name: "bucket_by_sequence_length/bucket/cond_1/control_dependency_1"
  op: "Identity"
  input: "bucket_by_sequence_length/bucket/cond_1/switch_f"
  input: "^bucket_by_sequence_length/bucket/cond_1/NoOp"
  device: "/device:CPU:0"
  attr {
    key: "T"
    value {
      type: DT_BOOL
    }
  }
  attr {
    key: "_class"
    value {
      list {
        s: "loc:@bucket_by_sequence_length/bucket/cond_1/switch_f"
      }
    }
  }
  attr {
    key: "_output_shapes"
    value {
      list {
        shape {
        }
      }
    }
  }
}
node {
  name: "bucket_by_sequence_length/bucket/cond_1/Merge"
  op: "Merge"
  input: "bucket_by_sequence_length/bucket/cond_1/control_dependency_1"
  input: "bucket_by_sequence_length/bucket/cond_1/control_dependency"
  device: "/device:CPU:0"
  attr {
    key: "N"
    value {
      i: 2
    }
  }
  attr {
    key: "T"
    value {
      type: DT_BOOL
    }
  }
  attr {
    key: "_output_shapes"
    value {
      list {
        shape {
        }
        shape {
        }
      }
    }
  }
}
node {
  name: "bucket_by_sequence_length/bucket/Equal_2/y"
  op: "Const"
  device: "/device:CPU:0"
  attr {
    key: "_output_shapes"
    value {
      list {
        shape {
        }
      }
    }
  }
  attr {
    key: "dtype"
    value {
      type: DT_INT32
    }
  }
  attr {
    key: "value"
    value {
      tensor {
        dtype: DT_INT32
        tensor_shape {
        }
        int_val: 2
      }
    }
  }
}
node {
  name: "bucket_by_sequence_length/bucket/Equal_2"
  op: "Equal"
  input: "bucket_by_sequence_length/ToInt32"
  input: "bucket_by_sequence_length/bucket/Equal_2/y"
  device: "/device:CPU:0"
  attr {
    key: "T"
    value {
      type: DT_INT32
    }
  }
  attr {
    key: "_output_shapes"
    value {
      list {
        shape {
        }
      }
    }
  }
}
node {
  name: "bucket_by_sequence_length/bucket/cond_2/Switch"
  op: "Switch"
  input: "bucket_by_sequence_length/bucket/Equal_2"
  input: "bucket_by_sequence_length/bucket/Equal_2"
  device: "/device:CPU:0"
  attr {
    key: "T"
    value {
      type: DT_BOOL
    }
  }
  attr {
    key: "_output_shapes"
    value {
      list {
        shape {
        }
        shape {
        }
      }
    }
  }
}
node {
  name: "bucket_by_sequence_length/bucket/cond_2/switch_t"
  op: "Identity"
  input: "bucket_by_sequence_length/bucket/cond_2/Switch:1"
  device: "/device:CPU:0"
  attr {
    key: "T"
    value {
      type: DT_BOOL
    }
  }
  attr {
    key: "_output_shapes"
    value {
      list {
        shape {
        }
      }
    }
  }
}
node {
  name: "bucket_by_sequence_length/bucket/cond_2/switch_f"
  op: "Identity"
  input: "bucket_by_sequence_length/bucket/cond_2/Switch"
  device: "/device:CPU:0"
  attr {
    key: "T"
    value {
      type: DT_BOOL
    }
  }
  attr {
    key: "_output_shapes"
    value {
      list {
        shape {
        }
      }
    }
  }
}
node {
  name: "bucket_by_sequence_length/bucket/cond_2/pred_id"
  op: "Identity"
  input: "bucket_by_sequence_length/bucket/Equal_2"
  device: "/device:CPU:0"
  attr {
    key: "T"
    value {
      type: DT_BOOL
    }
  }
  attr {
    key: "_output_shapes"
    value {
      list {
        shape {
        }
      }
    }
  }
}
node {
  name: "bucket_by_sequence_length/bucket/cond_2/bucket_queue_2_enqueue"
  op: "QueueEnqueueV2"
  input: "bucket_by_sequence_length/bucket/cond_2/bucket_queue_2_enqueue/Switch:1"
  input: "bucket_by_sequence_length/bucket/cond_2/bucket_queue_2_enqueue/Switch_1:1"
  input: "bucket_by_sequence_length/bucket/cond_2/bucket_queue_2_enqueue/Switch_2:1"
  input: "bucket_by_sequence_length/bucket/cond_2/bucket_queue_2_enqueue/Switch_3:1"
  input: "bucket_by_sequence_length/bucket/cond_2/bucket_queue_2_enqueue/Switch_4:1"
  input: "bucket_by_sequence_length/bucket/cond_2/bucket_queue_2_enqueue/Switch_5:1"
  input: "bucket_by_sequence_length/bucket/cond_2/bucket_queue_2_enqueue/Switch_6:1"
  device: "/device:CPU:0"
  attr {
    key: "Tcomponents"
    value {
      list {
        type: DT_INT32
        type: DT_FLOAT
        type: DT_STRING
        type: DT_INT64
        type: DT_STRING
        type: DT_STRING
      }
    }
  }
  attr {
    key: "timeout_ms"
    value {
      i: -1
    }
  }
}
node {
  name: "bucket_by_sequence_length/bucket/cond_2/bucket_queue_2_enqueue/Switch"
  op: "Switch"
  input: "bucket_by_sequence_length/bucket/bucket_queue_2"
  input: "bucket_by_sequence_length/bucket/cond_2/pred_id"
  device: "/device:CPU:0"
  attr {
    key: "T"
    value {
      type: DT_RESOURCE
    }
  }
  attr {
    key: "_class"
    value {
      list {
        s: "loc:@bucket_by_sequence_length/bucket/bucket_queue_2"
      }
    }
  }
  attr {
    key: "_output_shapes"
    value {
      list {
        shape {
        }
        shape {
        }
      }
    }
  }
}
node {
  name: "bucket_by_sequence_length/bucket/cond_2/bucket_queue_2_enqueue/Switch_1"
  op: "Switch"
  input: "Cast"
  input: "bucket_by_sequence_length/bucket/cond_2/pred_id"
  device: "/device:CPU:0"
  attr {
    key: "T"
    value {
      type: DT_INT32
    }
  }
  attr {
    key: "_class"
    value {
      list {
        s: "loc:@Cast"
      }
    }
  }
  attr {
    key: "_output_shapes"
    value {
      list {
        shape {
          dim {
            size: 1
          }
        }
        shape {
          dim {
            size: 1
          }
        }
      }
    }
  }
}
node {
  name: "bucket_by_sequence_length/bucket/cond_2/bucket_queue_2_enqueue/Switch_2"
  op: "Switch"
  input: "concat"
  input: "bucket_by_sequence_length/bucket/cond_2/pred_id"
  device: "/device:CPU:0"
  attr {
    key: "T"
    value {
      type: DT_FLOAT
    }
  }
  attr {
    key: "_class"
    value {
      list {
        s: "loc:@concat"
      }
    }
  }
  attr {
    key: "_output_shapes"
    value {
      list {
        shape {
          dim {
            size: -1
          }
          dim {
            size: -1
          }
          dim {
            size: 1
          }
        }
        shape {
          dim {
            size: -1
          }
          dim {
            size: -1
          }
          dim {
            size: 1
          }
        }
      }
    }
  }
}
node {
  name: "bucket_by_sequence_length/bucket/cond_2/bucket_queue_2_enqueue/Switch_3"
  op: "Switch"
  input: "SerializeSparse"
  input: "bucket_by_sequence_length/bucket/cond_2/pred_id"
  device: "/device:CPU:0"
  attr {
    key: "T"
    value {
      type: DT_STRING
    }
  }
  attr {
    key: "_class"
    value {
      list {
        s: "loc:@SerializeSparse"
      }
    }
  }
  attr {
    key: "_output_shapes"
    value {
      list {
        shape {
          dim {
            size: 3
          }
        }
        shape {
          dim {
            size: 3
          }
        }
      }
    }
  }
}
node {
  name: "bucket_by_sequence_length/bucket/cond_2/bucket_queue_2_enqueue/Switch_4"
  op: "Switch"
  input: "ParseSingleExample/ParseSingleExample:6"
  input: "bucket_by_sequence_length/bucket/cond_2/pred_id"
  device: "/device:CPU:0"
  attr {
    key: "T"
    value {
      type: DT_INT64
    }
  }
  attr {
    key: "_class"
    value {
      list {
        s: "loc:@ParseSingleExample/ParseSingleExample"
      }
    }
  }
  attr {
    key: "_output_shapes"
    value {
      list {
        shape {
          dim {
            size: 1
          }
        }
        shape {
          dim {
            size: 1
          }
        }
      }
    }
  }
}
node {
  name: "bucket_by_sequence_length/bucket/cond_2/bucket_queue_2_enqueue/Switch_5"
  op: "Switch"
  input: "ParseSingleExample/ParseSingleExample:7"
  input: "bucket_by_sequence_length/bucket/cond_2/pred_id"
  device: "/device:CPU:0"
  attr {
    key: "T"
    value {
      type: DT_STRING
    }
  }
  attr {
    key: "_class"
    value {
      list {
        s: "loc:@ParseSingleExample/ParseSingleExample"
      }
    }
  }
  attr {
    key: "_output_shapes"
    value {
      list {
        shape {
        }
        shape {
        }
      }
    }
  }
}
node {
  name: "bucket_by_sequence_length/bucket/cond_2/bucket_queue_2_enqueue/Switch_6"
  op: "Switch"
  input: "ParseSingleExample/ParseSingleExample:4"
  input: "bucket_by_sequence_length/bucket/cond_2/pred_id"
  device: "/device:CPU:0"
  attr {
    key: "T"
    value {
      type: DT_STRING
    }
  }
  attr {
    key: "_class"
    value {
      list {
        s: "loc:@ParseSingleExample/ParseSingleExample"
      }
    }
  }
  attr {
    key: "_output_shapes"
    value {
      list {
        shape {
        }
        shape {
        }
      }
    }
  }
}
node {
  name: "bucket_by_sequence_length/bucket/cond_2/control_dependency"
  op: "Identity"
  input: "bucket_by_sequence_length/bucket/cond_2/switch_t"
  input: "^bucket_by_sequence_length/bucket/cond_2/bucket_queue_2_enqueue"
  device: "/device:CPU:0"
  attr {
    key: "T"
    value {
      type: DT_BOOL
    }
  }
  attr {
    key: "_class"
    value {
      list {
        s: "loc:@bucket_by_sequence_length/bucket/cond_2/switch_t"
      }
    }
  }
  attr {
    key: "_output_shapes"
    value {
      list {
        shape {
        }
      }
    }
  }
}
node {
  name: "bucket_by_sequence_length/bucket/cond_2/NoOp"
  op: "NoOp"
  input: "^bucket_by_sequence_length/bucket/cond_2/switch_f"
  device: "/device:CPU:0"
}
node {
  name: "bucket_by_sequence_length/bucket/cond_2/control_dependency_1"
  op: "Identity"
  input: "bucket_by_sequence_length/bucket/cond_2/switch_f"
  input: "^bucket_by_sequence_length/bucket/cond_2/NoOp"
  device: "/device:CPU:0"
  attr {
    key: "T"
    value {
      type: DT_BOOL
    }
  }
  attr {
    key: "_class"
    value {
      list {
        s: "loc:@bucket_by_sequence_length/bucket/cond_2/switch_f"
      }
    }
  }
  attr {
    key: "_output_shapes"
    value {
      list {
        shape {
        }
      }
    }
  }
}
node {
  name: "bucket_by_sequence_length/bucket/cond_2/Merge"
  op: "Merge"
  input: "bucket_by_sequence_length/bucket/cond_2/control_dependency_1"
  input: "bucket_by_sequence_length/bucket/cond_2/control_dependency"
  device: "/device:CPU:0"
  attr {
    key: "N"
    value {
      i: 2
    }
  }
  attr {
    key: "T"
    value {
      type: DT_BOOL
    }
  }
  attr {
    key: "_output_shapes"
    value {
      list {
        shape {
        }
        shape {
        }
      }
    }
  }
}
node {
  name: "bucket_by_sequence_length/bucket/Equal_3/y"
  op: "Const"
  device: "/device:CPU:0"
  attr {
    key: "_output_shapes"
    value {
      list {
        shape {
        }
      }
    }
  }
  attr {
    key: "dtype"
    value {
      type: DT_INT32
    }
  }
  attr {
    key: "value"
    value {
      tensor {
        dtype: DT_INT32
        tensor_shape {
        }
        int_val: 3
      }
    }
  }
}
node {
  name: "bucket_by_sequence_length/bucket/Equal_3"
  op: "Equal"
  input: "bucket_by_sequence_length/ToInt32"
  input: "bucket_by_sequence_length/bucket/Equal_3/y"
  device: "/device:CPU:0"
  attr {
    key: "T"
    value {
      type: DT_INT32
    }
  }
  attr {
    key: "_output_shapes"
    value {
      list {
        shape {
        }
      }
    }
  }
}
node {
  name: "bucket_by_sequence_length/bucket/cond_3/Switch"
  op: "Switch"
  input: "bucket_by_sequence_length/bucket/Equal_3"
  input: "bucket_by_sequence_length/bucket/Equal_3"
  device: "/device:CPU:0"
  attr {
    key: "T"
    value {
      type: DT_BOOL
    }
  }
  attr {
    key: "_output_shapes"
    value {
      list {
        shape {
        }
        shape {
        }
      }
    }
  }
}
node {
  name: "bucket_by_sequence_length/bucket/cond_3/switch_t"
  op: "Identity"
  input: "bucket_by_sequence_length/bucket/cond_3/Switch:1"
  device: "/device:CPU:0"
  attr {
    key: "T"
    value {
      type: DT_BOOL
    }
  }
  attr {
    key: "_output_shapes"
    value {
      list {
        shape {
        }
      }
    }
  }
}
node {
  name: "bucket_by_sequence_length/bucket/cond_3/switch_f"
  op: "Identity"
  input: "bucket_by_sequence_length/bucket/cond_3/Switch"
  device: "/device:CPU:0"
  attr {
    key: "T"
    value {
      type: DT_BOOL
    }
  }
  attr {
    key: "_output_shapes"
    value {
      list {
        shape {
        }
      }
    }
  }
}
node {
  name: "bucket_by_sequence_length/bucket/cond_3/pred_id"
  op: "Identity"
  input: "bucket_by_sequence_length/bucket/Equal_3"
  device: "/device:CPU:0"
  attr {
    key: "T"
    value {
      type: DT_BOOL
    }
  }
  attr {
    key: "_output_shapes"
    value {
      list {
        shape {
        }
      }
    }
  }
}
node {
  name: "bucket_by_sequence_length/bucket/cond_3/bucket_queue_3_enqueue"
  op: "QueueEnqueueV2"
  input: "bucket_by_sequence_length/bucket/cond_3/bucket_queue_3_enqueue/Switch:1"
  input: "bucket_by_sequence_length/bucket/cond_3/bucket_queue_3_enqueue/Switch_1:1"
  input: "bucket_by_sequence_length/bucket/cond_3/bucket_queue_3_enqueue/Switch_2:1"
  input: "bucket_by_sequence_length/bucket/cond_3/bucket_queue_3_enqueue/Switch_3:1"
  input: "bucket_by_sequence_length/bucket/cond_3/bucket_queue_3_enqueue/Switch_4:1"
  input: "bucket_by_sequence_length/bucket/cond_3/bucket_queue_3_enqueue/Switch_5:1"
  input: "bucket_by_sequence_length/bucket/cond_3/bucket_queue_3_enqueue/Switch_6:1"
  device: "/device:CPU:0"
  attr {
    key: "Tcomponents"
    value {
      list {
        type: DT_INT32
        type: DT_FLOAT
        type: DT_STRING
        type: DT_INT64
        type: DT_STRING
        type: DT_STRING
      }
    }
  }
  attr {
    key: "timeout_ms"
    value {
      i: -1
    }
  }
}
node {
  name: "bucket_by_sequence_length/bucket/cond_3/bucket_queue_3_enqueue/Switch"
  op: "Switch"
  input: "bucket_by_sequence_length/bucket/bucket_queue_3"
  input: "bucket_by_sequence_length/bucket/cond_3/pred_id"
  device: "/device:CPU:0"
  attr {
    key: "T"
    value {
      type: DT_RESOURCE
    }
  }
  attr {
    key: "_class"
    value {
      list {
        s: "loc:@bucket_by_sequence_length/bucket/bucket_queue_3"
      }
    }
  }
  attr {
    key: "_output_shapes"
    value {
      list {
        shape {
        }
        shape {
        }
      }
    }
  }
}
node {
  name: "bucket_by_sequence_length/bucket/cond_3/bucket_queue_3_enqueue/Switch_1"
  op: "Switch"
  input: "Cast"
  input: "bucket_by_sequence_length/bucket/cond_3/pred_id"
  device: "/device:CPU:0"
  attr {
    key: "T"
    value {
      type: DT_INT32
    }
  }
  attr {
    key: "_class"
    value {
      list {
        s: "loc:@Cast"
      }
    }
  }
  attr {
    key: "_output_shapes"
    value {
      list {
        shape {
          dim {
            size: 1
          }
        }
        shape {
          dim {
            size: 1
          }
        }
      }
    }
  }
}
node {
  name: "bucket_by_sequence_length/bucket/cond_3/bucket_queue_3_enqueue/Switch_2"
  op: "Switch"
  input: "concat"
  input: "bucket_by_sequence_length/bucket/cond_3/pred_id"
  device: "/device:CPU:0"
  attr {
    key: "T"
    value {
      type: DT_FLOAT
    }
  }
  attr {
    key: "_class"
    value {
      list {
        s: "loc:@concat"
      }
    }
  }
  attr {
    key: "_output_shapes"
    value {
      list {
        shape {
          dim {
            size: -1
          }
          dim {
            size: -1
          }
          dim {
            size: 1
          }
        }
        shape {
          dim {
            size: -1
          }
          dim {
            size: -1
          }
          dim {
            size: 1
          }
        }
      }
    }
  }
}
node {
  name: "bucket_by_sequence_length/bucket/cond_3/bucket_queue_3_enqueue/Switch_3"
  op: "Switch"
  input: "SerializeSparse"
  input: "bucket_by_sequence_length/bucket/cond_3/pred_id"
  device: "/device:CPU:0"
  attr {
    key: "T"
    value {
      type: DT_STRING
    }
  }
  attr {
    key: "_class"
    value {
      list {
        s: "loc:@SerializeSparse"
      }
    }
  }
  attr {
    key: "_output_shapes"
    value {
      list {
        shape {
          dim {
            size: 3
          }
        }
        shape {
          dim {
            size: 3
          }
        }
      }
    }
  }
}
node {
  name: "bucket_by_sequence_length/bucket/cond_3/bucket_queue_3_enqueue/Switch_4"
  op: "Switch"
  input: "ParseSingleExample/ParseSingleExample:6"
  input: "bucket_by_sequence_length/bucket/cond_3/pred_id"
  device: "/device:CPU:0"
  attr {
    key: "T"
    value {
      type: DT_INT64
    }
  }
  attr {
    key: "_class"
    value {
      list {
        s: "loc:@ParseSingleExample/ParseSingleExample"
      }
    }
  }
  attr {
    key: "_output_shapes"
    value {
      list {
        shape {
          dim {
            size: 1
          }
        }
        shape {
          dim {
            size: 1
          }
        }
      }
    }
  }
}
node {
  name: "bucket_by_sequence_length/bucket/cond_3/bucket_queue_3_enqueue/Switch_5"
  op: "Switch"
  input: "ParseSingleExample/ParseSingleExample:7"
  input: "bucket_by_sequence_length/bucket/cond_3/pred_id"
  device: "/device:CPU:0"
  attr {
    key: "T"
    value {
      type: DT_STRING
    }
  }
  attr {
    key: "_class"
    value {
      list {
        s: "loc:@ParseSingleExample/ParseSingleExample"
      }
    }
  }
  attr {
    key: "_output_shapes"
    value {
      list {
        shape {
        }
        shape {
        }
      }
    }
  }
}
node {
  name: "bucket_by_sequence_length/bucket/cond_3/bucket_queue_3_enqueue/Switch_6"
  op: "Switch"
  input: "ParseSingleExample/ParseSingleExample:4"
  input: "bucket_by_sequence_length/bucket/cond_3/pred_id"
  device: "/device:CPU:0"
  attr {
    key: "T"
    value {
      type: DT_STRING
    }
  }
  attr {
    key: "_class"
    value {
      list {
        s: "loc:@ParseSingleExample/ParseSingleExample"
      }
    }
  }
  attr {
    key: "_output_shapes"
    value {
      list {
        shape {
        }
        shape {
        }
      }
    }
  }
}
node {
  name: "bucket_by_sequence_length/bucket/cond_3/control_dependency"
  op: "Identity"
  input: "bucket_by_sequence_length/bucket/cond_3/switch_t"
  input: "^bucket_by_sequence_length/bucket/cond_3/bucket_queue_3_enqueue"
  device: "/device:CPU:0"
  attr {
    key: "T"
    value {
      type: DT_BOOL
    }
  }
  attr {
    key: "_class"
    value {
      list {
        s: "loc:@bucket_by_sequence_length/bucket/cond_3/switch_t"
      }
    }
  }
  attr {
    key: "_output_shapes"
    value {
      list {
        shape {
        }
      }
    }
  }
}
node {
  name: "bucket_by_sequence_length/bucket/cond_3/NoOp"
  op: "NoOp"
  input: "^bucket_by_sequence_length/bucket/cond_3/switch_f"
  device: "/device:CPU:0"
}
node {
  name: "bucket_by_sequence_length/bucket/cond_3/control_dependency_1"
  op: "Identity"
  input: "bucket_by_sequence_length/bucket/cond_3/switch_f"
  input: "^bucket_by_sequence_length/bucket/cond_3/NoOp"
  device: "/device:CPU:0"
  attr {
    key: "T"
    value {
      type: DT_BOOL
    }
  }
  attr {
    key: "_class"
    value {
      list {
        s: "loc:@bucket_by_sequence_length/bucket/cond_3/switch_f"
      }
    }
  }
  attr {
    key: "_output_shapes"
    value {
      list {
        shape {
        }
      }
    }
  }
}
node {
  name: "bucket_by_sequence_length/bucket/cond_3/Merge"
  op: "Merge"
  input: "bucket_by_sequence_length/bucket/cond_3/control_dependency_1"
  input: "bucket_by_sequence_length/bucket/cond_3/control_dependency"
  device: "/device:CPU:0"
  attr {
    key: "N"
    value {
      i: 2
    }
  }
  attr {
    key: "T"
    value {
      type: DT_BOOL
    }
  }
  attr {
    key: "_output_shapes"
    value {
      list {
        shape {
        }
        shape {
        }
      }
    }
  }
}
node {
  name: "bucket_by_sequence_length/bucket/Equal_4/y"
  op: "Const"
  device: "/device:CPU:0"
  attr {
    key: "_output_shapes"
    value {
      list {
        shape {
        }
      }
    }
  }
  attr {
    key: "dtype"
    value {
      type: DT_INT32
    }
  }
  attr {
    key: "value"
    value {
      tensor {
        dtype: DT_INT32
        tensor_shape {
        }
        int_val: 4
      }
    }
  }
}
node {
  name: "bucket_by_sequence_length/bucket/Equal_4"
  op: "Equal"
  input: "bucket_by_sequence_length/ToInt32"
  input: "bucket_by_sequence_length/bucket/Equal_4/y"
  device: "/device:CPU:0"
  attr {
    key: "T"
    value {
      type: DT_INT32
    }
  }
  attr {
    key: "_output_shapes"
    value {
      list {
        shape {
        }
      }
    }
  }
}
node {
  name: "bucket_by_sequence_length/bucket/cond_4/Switch"
  op: "Switch"
  input: "bucket_by_sequence_length/bucket/Equal_4"
  input: "bucket_by_sequence_length/bucket/Equal_4"
  device: "/device:CPU:0"
  attr {
    key: "T"
    value {
      type: DT_BOOL
    }
  }
  attr {
    key: "_output_shapes"
    value {
      list {
        shape {
        }
        shape {
        }
      }
    }
  }
}
node {
  name: "bucket_by_sequence_length/bucket/cond_4/switch_t"
  op: "Identity"
  input: "bucket_by_sequence_length/bucket/cond_4/Switch:1"
  device: "/device:CPU:0"
  attr {
    key: "T"
    value {
      type: DT_BOOL
    }
  }
  attr {
    key: "_output_shapes"
    value {
      list {
        shape {
        }
      }
    }
  }
}
node {
  name: "bucket_by_sequence_length/bucket/cond_4/switch_f"
  op: "Identity"
  input: "bucket_by_sequence_length/bucket/cond_4/Switch"
  device: "/device:CPU:0"
  attr {
    key: "T"
    value {
      type: DT_BOOL
    }
  }
  attr {
    key: "_output_shapes"
    value {
      list {
        shape {
        }
      }
    }
  }
}
node {
  name: "bucket_by_sequence_length/bucket/cond_4/pred_id"
  op: "Identity"
  input: "bucket_by_sequence_length/bucket/Equal_4"
  device: "/device:CPU:0"
  attr {
    key: "T"
    value {
      type: DT_BOOL
    }
  }
  attr {
    key: "_output_shapes"
    value {
      list {
        shape {
        }
      }
    }
  }
}
node {
  name: "bucket_by_sequence_length/bucket/cond_4/bucket_queue_4_enqueue"
  op: "QueueEnqueueV2"
  input: "bucket_by_sequence_length/bucket/cond_4/bucket_queue_4_enqueue/Switch:1"
  input: "bucket_by_sequence_length/bucket/cond_4/bucket_queue_4_enqueue/Switch_1:1"
  input: "bucket_by_sequence_length/bucket/cond_4/bucket_queue_4_enqueue/Switch_2:1"
  input: "bucket_by_sequence_length/bucket/cond_4/bucket_queue_4_enqueue/Switch_3:1"
  input: "bucket_by_sequence_length/bucket/cond_4/bucket_queue_4_enqueue/Switch_4:1"
  input: "bucket_by_sequence_length/bucket/cond_4/bucket_queue_4_enqueue/Switch_5:1"
  input: "bucket_by_sequence_length/bucket/cond_4/bucket_queue_4_enqueue/Switch_6:1"
  device: "/device:CPU:0"
  attr {
    key: "Tcomponents"
    value {
      list {
        type: DT_INT32
        type: DT_FLOAT
        type: DT_STRING
        type: DT_INT64
        type: DT_STRING
        type: DT_STRING
      }
    }
  }
  attr {
    key: "timeout_ms"
    value {
      i: -1
    }
  }
}
node {
  name: "bucket_by_sequence_length/bucket/cond_4/bucket_queue_4_enqueue/Switch"
  op: "Switch"
  input: "bucket_by_sequence_length/bucket/bucket_queue_4"
  input: "bucket_by_sequence_length/bucket/cond_4/pred_id"
  device: "/device:CPU:0"
  attr {
    key: "T"
    value {
      type: DT_RESOURCE
    }
  }
  attr {
    key: "_class"
    value {
      list {
        s: "loc:@bucket_by_sequence_length/bucket/bucket_queue_4"
      }
    }
  }
  attr {
    key: "_output_shapes"
    value {
      list {
        shape {
        }
        shape {
        }
      }
    }
  }
}
node {
  name: "bucket_by_sequence_length/bucket/cond_4/bucket_queue_4_enqueue/Switch_1"
  op: "Switch"
  input: "Cast"
  input: "bucket_by_sequence_length/bucket/cond_4/pred_id"
  device: "/device:CPU:0"
  attr {
    key: "T"
    value {
      type: DT_INT32
    }
  }
  attr {
    key: "_class"
    value {
      list {
        s: "loc:@Cast"
      }
    }
  }
  attr {
    key: "_output_shapes"
    value {
      list {
        shape {
          dim {
            size: 1
          }
        }
        shape {
          dim {
            size: 1
          }
        }
      }
    }
  }
}
node {
  name: "bucket_by_sequence_length/bucket/cond_4/bucket_queue_4_enqueue/Switch_2"
  op: "Switch"
  input: "concat"
  input: "bucket_by_sequence_length/bucket/cond_4/pred_id"
  device: "/device:CPU:0"
  attr {
    key: "T"
    value {
      type: DT_FLOAT
    }
  }
  attr {
    key: "_class"
    value {
      list {
        s: "loc:@concat"
      }
    }
  }
  attr {
    key: "_output_shapes"
    value {
      list {
        shape {
          dim {
            size: -1
          }
          dim {
            size: -1
          }
          dim {
            size: 1
          }
        }
        shape {
          dim {
            size: -1
          }
          dim {
            size: -1
          }
          dim {
            size: 1
          }
        }
      }
    }
  }
}
node {
  name: "bucket_by_sequence_length/bucket/cond_4/bucket_queue_4_enqueue/Switch_3"
  op: "Switch"
  input: "SerializeSparse"
  input: "bucket_by_sequence_length/bucket/cond_4/pred_id"
  device: "/device:CPU:0"
  attr {
    key: "T"
    value {
      type: DT_STRING
    }
  }
  attr {
    key: "_class"
    value {
      list {
        s: "loc:@SerializeSparse"
      }
    }
  }
  attr {
    key: "_output_shapes"
    value {
      list {
        shape {
          dim {
            size: 3
          }
        }
        shape {
          dim {
            size: 3
          }
        }
      }
    }
  }
}
node {
  name: "bucket_by_sequence_length/bucket/cond_4/bucket_queue_4_enqueue/Switch_4"
  op: "Switch"
  input: "ParseSingleExample/ParseSingleExample:6"
  input: "bucket_by_sequence_length/bucket/cond_4/pred_id"
  device: "/device:CPU:0"
  attr {
    key: "T"
    value {
      type: DT_INT64
    }
  }
  attr {
    key: "_class"
    value {
      list {
        s: "loc:@ParseSingleExample/ParseSingleExample"
      }
    }
  }
  attr {
    key: "_output_shapes"
    value {
      list {
        shape {
          dim {
            size: 1
          }
        }
        shape {
          dim {
            size: 1
          }
        }
      }
    }
  }
}
node {
  name: "bucket_by_sequence_length/bucket/cond_4/bucket_queue_4_enqueue/Switch_5"
  op: "Switch"
  input: "ParseSingleExample/ParseSingleExample:7"
  input: "bucket_by_sequence_length/bucket/cond_4/pred_id"
  device: "/device:CPU:0"
  attr {
    key: "T"
    value {
      type: DT_STRING
    }
  }
  attr {
    key: "_class"
    value {
      list {
        s: "loc:@ParseSingleExample/ParseSingleExample"
      }
    }
  }
  attr {
    key: "_output_shapes"
    value {
      list {
        shape {
        }
        shape {
        }
      }
    }
  }
}
node {
  name: "bucket_by_sequence_length/bucket/cond_4/bucket_queue_4_enqueue/Switch_6"
  op: "Switch"
  input: "ParseSingleExample/ParseSingleExample:4"
  input: "bucket_by_sequence_length/bucket/cond_4/pred_id"
  device: "/device:CPU:0"
  attr {
    key: "T"
    value {
      type: DT_STRING
    }
  }
  attr {
    key: "_class"
    value {
      list {
        s: "loc:@ParseSingleExample/ParseSingleExample"
      }
    }
  }
  attr {
    key: "_output_shapes"
    value {
      list {
        shape {
        }
        shape {
        }
      }
    }
  }
}
node {
  name: "bucket_by_sequence_length/bucket/cond_4/control_dependency"
  op: "Identity"
  input: "bucket_by_sequence_length/bucket/cond_4/switch_t"
  input: "^bucket_by_sequence_length/bucket/cond_4/bucket_queue_4_enqueue"
  device: "/device:CPU:0"
  attr {
    key: "T"
    value {
      type: DT_BOOL
    }
  }
  attr {
    key: "_class"
    value {
      list {
        s: "loc:@bucket_by_sequence_length/bucket/cond_4/switch_t"
      }
    }
  }
  attr {
    key: "_output_shapes"
    value {
      list {
        shape {
        }
      }
    }
  }
}
node {
  name: "bucket_by_sequence_length/bucket/cond_4/NoOp"
  op: "NoOp"
  input: "^bucket_by_sequence_length/bucket/cond_4/switch_f"
  device: "/device:CPU:0"
}
node {
  name: "bucket_by_sequence_length/bucket/cond_4/control_dependency_1"
  op: "Identity"
  input: "bucket_by_sequence_length/bucket/cond_4/switch_f"
  input: "^bucket_by_sequence_length/bucket/cond_4/NoOp"
  device: "/device:CPU:0"
  attr {
    key: "T"
    value {
      type: DT_BOOL
    }
  }
  attr {
    key: "_class"
    value {
      list {
        s: "loc:@bucket_by_sequence_length/bucket/cond_4/switch_f"
      }
    }
  }
  attr {
    key: "_output_shapes"
    value {
      list {
        shape {
        }
      }
    }
  }
}
node {
  name: "bucket_by_sequence_length/bucket/cond_4/Merge"
  op: "Merge"
  input: "bucket_by_sequence_length/bucket/cond_4/control_dependency_1"
  input: "bucket_by_sequence_length/bucket/cond_4/control_dependency"
  device: "/device:CPU:0"
  attr {
    key: "N"
    value {
      i: 2
    }
  }
  attr {
    key: "T"
    value {
      type: DT_BOOL
    }
  }
  attr {
    key: "_output_shapes"
    value {
      list {
        shape {
        }
        shape {
        }
      }
    }
  }
}
node {
  name: "bucket_by_sequence_length/bucket/Equal_5/y"
  op: "Const"
  device: "/device:CPU:0"
  attr {
    key: "_output_shapes"
    value {
      list {
        shape {
        }
      }
    }
  }
  attr {
    key: "dtype"
    value {
      type: DT_INT32
    }
  }
  attr {
    key: "value"
    value {
      tensor {
        dtype: DT_INT32
        tensor_shape {
        }
        int_val: 5
      }
    }
  }
}
node {
  name: "bucket_by_sequence_length/bucket/Equal_5"
  op: "Equal"
  input: "bucket_by_sequence_length/ToInt32"
  input: "bucket_by_sequence_length/bucket/Equal_5/y"
  device: "/device:CPU:0"
  attr {
    key: "T"
    value {
      type: DT_INT32
    }
  }
  attr {
    key: "_output_shapes"
    value {
      list {
        shape {
        }
      }
    }
  }
}
node {
  name: "bucket_by_sequence_length/bucket/cond_5/Switch"
  op: "Switch"
  input: "bucket_by_sequence_length/bucket/Equal_5"
  input: "bucket_by_sequence_length/bucket/Equal_5"
  device: "/device:CPU:0"
  attr {
    key: "T"
    value {
      type: DT_BOOL
    }
  }
  attr {
    key: "_output_shapes"
    value {
      list {
        shape {
        }
        shape {
        }
      }
    }
  }
}
node {
  name: "bucket_by_sequence_length/bucket/cond_5/switch_t"
  op: "Identity"
  input: "bucket_by_sequence_length/bucket/cond_5/Switch:1"
  device: "/device:CPU:0"
  attr {
    key: "T"
    value {
      type: DT_BOOL
    }
  }
  attr {
    key: "_output_shapes"
    value {
      list {
        shape {
        }
      }
    }
  }
}
node {
  name: "bucket_by_sequence_length/bucket/cond_5/switch_f"
  op: "Identity"
  input: "bucket_by_sequence_length/bucket/cond_5/Switch"
  device: "/device:CPU:0"
  attr {
    key: "T"
    value {
      type: DT_BOOL
    }
  }
  attr {
    key: "_output_shapes"
    value {
      list {
        shape {
        }
      }
    }
  }
}
node {
  name: "bucket_by_sequence_length/bucket/cond_5/pred_id"
  op: "Identity"
  input: "bucket_by_sequence_length/bucket/Equal_5"
  device: "/device:CPU:0"
  attr {
    key: "T"
    value {
      type: DT_BOOL
    }
  }
  attr {
    key: "_output_shapes"
    value {
      list {
        shape {
        }
      }
    }
  }
}
node {
  name: "bucket_by_sequence_length/bucket/cond_5/bucket_queue_5_enqueue"
  op: "QueueEnqueueV2"
  input: "bucket_by_sequence_length/bucket/cond_5/bucket_queue_5_enqueue/Switch:1"
  input: "bucket_by_sequence_length/bucket/cond_5/bucket_queue_5_enqueue/Switch_1:1"
  input: "bucket_by_sequence_length/bucket/cond_5/bucket_queue_5_enqueue/Switch_2:1"
  input: "bucket_by_sequence_length/bucket/cond_5/bucket_queue_5_enqueue/Switch_3:1"
  input: "bucket_by_sequence_length/bucket/cond_5/bucket_queue_5_enqueue/Switch_4:1"
  input: "bucket_by_sequence_length/bucket/cond_5/bucket_queue_5_enqueue/Switch_5:1"
  input: "bucket_by_sequence_length/bucket/cond_5/bucket_queue_5_enqueue/Switch_6:1"
  device: "/device:CPU:0"
  attr {
    key: "Tcomponents"
    value {
      list {
        type: DT_INT32
        type: DT_FLOAT
        type: DT_STRING
        type: DT_INT64
        type: DT_STRING
        type: DT_STRING
      }
    }
  }
  attr {
    key: "timeout_ms"
    value {
      i: -1
    }
  }
}
node {
  name: "bucket_by_sequence_length/bucket/cond_5/bucket_queue_5_enqueue/Switch"
  op: "Switch"
  input: "bucket_by_sequence_length/bucket/bucket_queue_5"
  input: "bucket_by_sequence_length/bucket/cond_5/pred_id"
  device: "/device:CPU:0"
  attr {
    key: "T"
    value {
      type: DT_RESOURCE
    }
  }
  attr {
    key: "_class"
    value {
      list {
        s: "loc:@bucket_by_sequence_length/bucket/bucket_queue_5"
      }
    }
  }
  attr {
    key: "_output_shapes"
    value {
      list {
        shape {
        }
        shape {
        }
      }
    }
  }
}
node {
  name: "bucket_by_sequence_length/bucket/cond_5/bucket_queue_5_enqueue/Switch_1"
  op: "Switch"
  input: "Cast"
  input: "bucket_by_sequence_length/bucket/cond_5/pred_id"
  device: "/device:CPU:0"
  attr {
    key: "T"
    value {
      type: DT_INT32
    }
  }
  attr {
    key: "_class"
    value {
      list {
        s: "loc:@Cast"
      }
    }
  }
  attr {
    key: "_output_shapes"
    value {
      list {
        shape {
          dim {
            size: 1
          }
        }
        shape {
          dim {
            size: 1
          }
        }
      }
    }
  }
}
node {
  name: "bucket_by_sequence_length/bucket/cond_5/bucket_queue_5_enqueue/Switch_2"
  op: "Switch"
  input: "concat"
  input: "bucket_by_sequence_length/bucket/cond_5/pred_id"
  device: "/device:CPU:0"
  attr {
    key: "T"
    value {
      type: DT_FLOAT
    }
  }
  attr {
    key: "_class"
    value {
      list {
        s: "loc:@concat"
      }
    }
  }
  attr {
    key: "_output_shapes"
    value {
      list {
        shape {
          dim {
            size: -1
          }
          dim {
            size: -1
          }
          dim {
            size: 1
          }
        }
        shape {
          dim {
            size: -1
          }
          dim {
            size: -1
          }
          dim {
            size: 1
          }
        }
      }
    }
  }
}
node {
  name: "bucket_by_sequence_length/bucket/cond_5/bucket_queue_5_enqueue/Switch_3"
  op: "Switch"
  input: "SerializeSparse"
  input: "bucket_by_sequence_length/bucket/cond_5/pred_id"
  device: "/device:CPU:0"
  attr {
    key: "T"
    value {
      type: DT_STRING
    }
  }
  attr {
    key: "_class"
    value {
      list {
        s: "loc:@SerializeSparse"
      }
    }
  }
  attr {
    key: "_output_shapes"
    value {
      list {
        shape {
          dim {
            size: 3
          }
        }
        shape {
          dim {
            size: 3
          }
        }
      }
    }
  }
}
node {
  name: "bucket_by_sequence_length/bucket/cond_5/bucket_queue_5_enqueue/Switch_4"
  op: "Switch"
  input: "ParseSingleExample/ParseSingleExample:6"
  input: "bucket_by_sequence_length/bucket/cond_5/pred_id"
  device: "/device:CPU:0"
  attr {
    key: "T"
    value {
      type: DT_INT64
    }
  }
  attr {
    key: "_class"
    value {
      list {
        s: "loc:@ParseSingleExample/ParseSingleExample"
      }
    }
  }
  attr {
    key: "_output_shapes"
    value {
      list {
        shape {
          dim {
            size: 1
          }
        }
        shape {
          dim {
            size: 1
          }
        }
      }
    }
  }
}
node {
  name: "bucket_by_sequence_length/bucket/cond_5/bucket_queue_5_enqueue/Switch_5"
  op: "Switch"
  input: "ParseSingleExample/ParseSingleExample:7"
  input: "bucket_by_sequence_length/bucket/cond_5/pred_id"
  device: "/device:CPU:0"
  attr {
    key: "T"
    value {
      type: DT_STRING
    }
  }
  attr {
    key: "_class"
    value {
      list {
        s: "loc:@ParseSingleExample/ParseSingleExample"
      }
    }
  }
  attr {
    key: "_output_shapes"
    value {
      list {
        shape {
        }
        shape {
        }
      }
    }
  }
}
node {
  name: "bucket_by_sequence_length/bucket/cond_5/bucket_queue_5_enqueue/Switch_6"
  op: "Switch"
  input: "ParseSingleExample/ParseSingleExample:4"
  input: "bucket_by_sequence_length/bucket/cond_5/pred_id"
  device: "/device:CPU:0"
  attr {
    key: "T"
    value {
      type: DT_STRING
    }
  }
  attr {
    key: "_class"
    value {
      list {
        s: "loc:@ParseSingleExample/ParseSingleExample"
      }
    }
  }
  attr {
    key: "_output_shapes"
    value {
      list {
        shape {
        }
        shape {
        }
      }
    }
  }
}
node {
  name: "bucket_by_sequence_length/bucket/cond_5/control_dependency"
  op: "Identity"
  input: "bucket_by_sequence_length/bucket/cond_5/switch_t"
  input: "^bucket_by_sequence_length/bucket/cond_5/bucket_queue_5_enqueue"
  device: "/device:CPU:0"
  attr {
    key: "T"
    value {
      type: DT_BOOL
    }
  }
  attr {
    key: "_class"
    value {
      list {
        s: "loc:@bucket_by_sequence_length/bucket/cond_5/switch_t"
      }
    }
  }
  attr {
    key: "_output_shapes"
    value {
      list {
        shape {
        }
      }
    }
  }
}
node {
  name: "bucket_by_sequence_length/bucket/cond_5/NoOp"
  op: "NoOp"
  input: "^bucket_by_sequence_length/bucket/cond_5/switch_f"
  device: "/device:CPU:0"
}
node {
  name: "bucket_by_sequence_length/bucket/cond_5/control_dependency_1"
  op: "Identity"
  input: "bucket_by_sequence_length/bucket/cond_5/switch_f"
  input: "^bucket_by_sequence_length/bucket/cond_5/NoOp"
  device: "/device:CPU:0"
  attr {
    key: "T"
    value {
      type: DT_BOOL
    }
  }
  attr {
    key: "_class"
    value {
      list {
        s: "loc:@bucket_by_sequence_length/bucket/cond_5/switch_f"
      }
    }
  }
  attr {
    key: "_output_shapes"
    value {
      list {
        shape {
        }
      }
    }
  }
}
node {
  name: "bucket_by_sequence_length/bucket/cond_5/Merge"
  op: "Merge"
  input: "bucket_by_sequence_length/bucket/cond_5/control_dependency_1"
  input: "bucket_by_sequence_length/bucket/cond_5/control_dependency"
  device: "/device:CPU:0"
  attr {
    key: "N"
    value {
      i: 2
    }
  }
  attr {
    key: "T"
    value {
      type: DT_BOOL
    }
  }
  attr {
    key: "_output_shapes"
    value {
      list {
        shape {
        }
        shape {
        }
      }
    }
  }
}
node {
  name: "bucket_by_sequence_length/bucket/Equal_6/y"
  op: "Const"
  device: "/device:CPU:0"
  attr {
    key: "_output_shapes"
    value {
      list {
        shape {
        }
      }
    }
  }
  attr {
    key: "dtype"
    value {
      type: DT_INT32
    }
  }
  attr {
    key: "value"
    value {
      tensor {
        dtype: DT_INT32
        tensor_shape {
        }
        int_val: 6
      }
    }
  }
}
node {
  name: "bucket_by_sequence_length/bucket/Equal_6"
  op: "Equal"
  input: "bucket_by_sequence_length/ToInt32"
  input: "bucket_by_sequence_length/bucket/Equal_6/y"
  device: "/device:CPU:0"
  attr {
    key: "T"
    value {
      type: DT_INT32
    }
  }
  attr {
    key: "_output_shapes"
    value {
      list {
        shape {
        }
      }
    }
  }
}
node {
  name: "bucket_by_sequence_length/bucket/cond_6/Switch"
  op: "Switch"
  input: "bucket_by_sequence_length/bucket/Equal_6"
  input: "bucket_by_sequence_length/bucket/Equal_6"
  device: "/device:CPU:0"
  attr {
    key: "T"
    value {
      type: DT_BOOL
    }
  }
  attr {
    key: "_output_shapes"
    value {
      list {
        shape {
        }
        shape {
        }
      }
    }
  }
}
node {
  name: "bucket_by_sequence_length/bucket/cond_6/switch_t"
  op: "Identity"
  input: "bucket_by_sequence_length/bucket/cond_6/Switch:1"
  device: "/device:CPU:0"
  attr {
    key: "T"
    value {
      type: DT_BOOL
    }
  }
  attr {
    key: "_output_shapes"
    value {
      list {
        shape {
        }
      }
    }
  }
}
node {
  name: "bucket_by_sequence_length/bucket/cond_6/switch_f"
  op: "Identity"
  input: "bucket_by_sequence_length/bucket/cond_6/Switch"
  device: "/device:CPU:0"
  attr {
    key: "T"
    value {
      type: DT_BOOL
    }
  }
  attr {
    key: "_output_shapes"
    value {
      list {
        shape {
        }
      }
    }
  }
}
node {
  name: "bucket_by_sequence_length/bucket/cond_6/pred_id"
  op: "Identity"
  input: "bucket_by_sequence_length/bucket/Equal_6"
  device: "/device:CPU:0"
  attr {
    key: "T"
    value {
      type: DT_BOOL
    }
  }
  attr {
    key: "_output_shapes"
    value {
      list {
        shape {
        }
      }
    }
  }
}
node {
  name: "bucket_by_sequence_length/bucket/cond_6/bucket_queue_6_enqueue"
  op: "QueueEnqueueV2"
  input: "bucket_by_sequence_length/bucket/cond_6/bucket_queue_6_enqueue/Switch:1"
  input: "bucket_by_sequence_length/bucket/cond_6/bucket_queue_6_enqueue/Switch_1:1"
  input: "bucket_by_sequence_length/bucket/cond_6/bucket_queue_6_enqueue/Switch_2:1"
  input: "bucket_by_sequence_length/bucket/cond_6/bucket_queue_6_enqueue/Switch_3:1"
  input: "bucket_by_sequence_length/bucket/cond_6/bucket_queue_6_enqueue/Switch_4:1"
  input: "bucket_by_sequence_length/bucket/cond_6/bucket_queue_6_enqueue/Switch_5:1"
  input: "bucket_by_sequence_length/bucket/cond_6/bucket_queue_6_enqueue/Switch_6:1"
  device: "/device:CPU:0"
  attr {
    key: "Tcomponents"
    value {
      list {
        type: DT_INT32
        type: DT_FLOAT
        type: DT_STRING
        type: DT_INT64
        type: DT_STRING
        type: DT_STRING
      }
    }
  }
  attr {
    key: "timeout_ms"
    value {
      i: -1
    }
  }
}
node {
  name: "bucket_by_sequence_length/bucket/cond_6/bucket_queue_6_enqueue/Switch"
  op: "Switch"
  input: "bucket_by_sequence_length/bucket/bucket_queue_6"
  input: "bucket_by_sequence_length/bucket/cond_6/pred_id"
  device: "/device:CPU:0"
  attr {
    key: "T"
    value {
      type: DT_RESOURCE
    }
  }
  attr {
    key: "_class"
    value {
      list {
        s: "loc:@bucket_by_sequence_length/bucket/bucket_queue_6"
      }
    }
  }
  attr {
    key: "_output_shapes"
    value {
      list {
        shape {
        }
        shape {
        }
      }
    }
  }
}
node {
  name: "bucket_by_sequence_length/bucket/cond_6/bucket_queue_6_enqueue/Switch_1"
  op: "Switch"
  input: "Cast"
  input: "bucket_by_sequence_length/bucket/cond_6/pred_id"
  device: "/device:CPU:0"
  attr {
    key: "T"
    value {
      type: DT_INT32
    }
  }
  attr {
    key: "_class"
    value {
      list {
        s: "loc:@Cast"
      }
    }
  }
  attr {
    key: "_output_shapes"
    value {
      list {
        shape {
          dim {
            size: 1
          }
        }
        shape {
          dim {
            size: 1
          }
        }
      }
    }
  }
}
node {
  name: "bucket_by_sequence_length/bucket/cond_6/bucket_queue_6_enqueue/Switch_2"
  op: "Switch"
  input: "concat"
  input: "bucket_by_sequence_length/bucket/cond_6/pred_id"
  device: "/device:CPU:0"
  attr {
    key: "T"
    value {
      type: DT_FLOAT
    }
  }
  attr {
    key: "_class"
    value {
      list {
        s: "loc:@concat"
      }
    }
  }
  attr {
    key: "_output_shapes"
    value {
      list {
        shape {
          dim {
            size: -1
          }
          dim {
            size: -1
          }
          dim {
            size: 1
          }
        }
        shape {
          dim {
            size: -1
          }
          dim {
            size: -1
          }
          dim {
            size: 1
          }
        }
      }
    }
  }
}
node {
  name: "bucket_by_sequence_length/bucket/cond_6/bucket_queue_6_enqueue/Switch_3"
  op: "Switch"
  input: "SerializeSparse"
  input: "bucket_by_sequence_length/bucket/cond_6/pred_id"
  device: "/device:CPU:0"
  attr {
    key: "T"
    value {
      type: DT_STRING
    }
  }
  attr {
    key: "_class"
    value {
      list {
        s: "loc:@SerializeSparse"
      }
    }
  }
  attr {
    key: "_output_shapes"
    value {
      list {
        shape {
          dim {
            size: 3
          }
        }
        shape {
          dim {
            size: 3
          }
        }
      }
    }
  }
}
node {
  name: "bucket_by_sequence_length/bucket/cond_6/bucket_queue_6_enqueue/Switch_4"
  op: "Switch"
  input: "ParseSingleExample/ParseSingleExample:6"
  input: "bucket_by_sequence_length/bucket/cond_6/pred_id"
  device: "/device:CPU:0"
  attr {
    key: "T"
    value {
      type: DT_INT64
    }
  }
  attr {
    key: "_class"
    value {
      list {
        s: "loc:@ParseSingleExample/ParseSingleExample"
      }
    }
  }
  attr {
    key: "_output_shapes"
    value {
      list {
        shape {
          dim {
            size: 1
          }
        }
        shape {
          dim {
            size: 1
          }
        }
      }
    }
  }
}
node {
  name: "bucket_by_sequence_length/bucket/cond_6/bucket_queue_6_enqueue/Switch_5"
  op: "Switch"
  input: "ParseSingleExample/ParseSingleExample:7"
  input: "bucket_by_sequence_length/bucket/cond_6/pred_id"
  device: "/device:CPU:0"
  attr {
    key: "T"
    value {
      type: DT_STRING
    }
  }
  attr {
    key: "_class"
    value {
      list {
        s: "loc:@ParseSingleExample/ParseSingleExample"
      }
    }
  }
  attr {
    key: "_output_shapes"
    value {
      list {
        shape {
        }
        shape {
        }
      }
    }
  }
}
node {
  name: "bucket_by_sequence_length/bucket/cond_6/bucket_queue_6_enqueue/Switch_6"
  op: "Switch"
  input: "ParseSingleExample/ParseSingleExample:4"
  input: "bucket_by_sequence_length/bucket/cond_6/pred_id"
  device: "/device:CPU:0"
  attr {
    key: "T"
    value {
      type: DT_STRING
    }
  }
  attr {
    key: "_class"
    value {
      list {
        s: "loc:@ParseSingleExample/ParseSingleExample"
      }
    }
  }
  attr {
    key: "_output_shapes"
    value {
      list {
        shape {
        }
        shape {
        }
      }
    }
  }
}
node {
  name: "bucket_by_sequence_length/bucket/cond_6/control_dependency"
  op: "Identity"
  input: "bucket_by_sequence_length/bucket/cond_6/switch_t"
  input: "^bucket_by_sequence_length/bucket/cond_6/bucket_queue_6_enqueue"
  device: "/device:CPU:0"
  attr {
    key: "T"
    value {
      type: DT_BOOL
    }
  }
  attr {
    key: "_class"
    value {
      list {
        s: "loc:@bucket_by_sequence_length/bucket/cond_6/switch_t"
      }
    }
  }
  attr {
    key: "_output_shapes"
    value {
      list {
        shape {
        }
      }
    }
  }
}
node {
  name: "bucket_by_sequence_length/bucket/cond_6/NoOp"
  op: "NoOp"
  input: "^bucket_by_sequence_length/bucket/cond_6/switch_f"
  device: "/device:CPU:0"
}
node {
  name: "bucket_by_sequence_length/bucket/cond_6/control_dependency_1"
  op: "Identity"
  input: "bucket_by_sequence_length/bucket/cond_6/switch_f"
  input: "^bucket_by_sequence_length/bucket/cond_6/NoOp"
  device: "/device:CPU:0"
  attr {
    key: "T"
    value {
      type: DT_BOOL
    }
  }
  attr {
    key: "_class"
    value {
      list {
        s: "loc:@bucket_by_sequence_length/bucket/cond_6/switch_f"
      }
    }
  }
  attr {
    key: "_output_shapes"
    value {
      list {
        shape {
        }
      }
    }
  }
}
node {
  name: "bucket_by_sequence_length/bucket/cond_6/Merge"
  op: "Merge"
  input: "bucket_by_sequence_length/bucket/cond_6/control_dependency_1"
  input: "bucket_by_sequence_length/bucket/cond_6/control_dependency"
  device: "/device:CPU:0"
  attr {
    key: "N"
    value {
      i: 2
    }
  }
  attr {
    key: "T"
    value {
      type: DT_BOOL
    }
  }
  attr {
    key: "_output_shapes"
    value {
      list {
        shape {
        }
        shape {
        }
      }
    }
  }
}
node {
  name: "bucket_by_sequence_length/bucket/Equal_7/y"
  op: "Const"
  device: "/device:CPU:0"
  attr {
    key: "_output_shapes"
    value {
      list {
        shape {
        }
      }
    }
  }
  attr {
    key: "dtype"
    value {
      type: DT_INT32
    }
  }
  attr {
    key: "value"
    value {
      tensor {
        dtype: DT_INT32
        tensor_shape {
        }
        int_val: 7
      }
    }
  }
}
node {
  name: "bucket_by_sequence_length/bucket/Equal_7"
  op: "Equal"
  input: "bucket_by_sequence_length/ToInt32"
  input: "bucket_by_sequence_length/bucket/Equal_7/y"
  device: "/device:CPU:0"
  attr {
    key: "T"
    value {
      type: DT_INT32
    }
  }
  attr {
    key: "_output_shapes"
    value {
      list {
        shape {
        }
      }
    }
  }
}
node {
  name: "bucket_by_sequence_length/bucket/cond_7/Switch"
  op: "Switch"
  input: "bucket_by_sequence_length/bucket/Equal_7"
  input: "bucket_by_sequence_length/bucket/Equal_7"
  device: "/device:CPU:0"
  attr {
    key: "T"
    value {
      type: DT_BOOL
    }
  }
  attr {
    key: "_output_shapes"
    value {
      list {
        shape {
        }
        shape {
        }
      }
    }
  }
}
node {
  name: "bucket_by_sequence_length/bucket/cond_7/switch_t"
  op: "Identity"
  input: "bucket_by_sequence_length/bucket/cond_7/Switch:1"
  device: "/device:CPU:0"
  attr {
    key: "T"
    value {
      type: DT_BOOL
    }
  }
  attr {
    key: "_output_shapes"
    value {
      list {
        shape {
        }
      }
    }
  }
}
node {
  name: "bucket_by_sequence_length/bucket/cond_7/switch_f"
  op: "Identity"
  input: "bucket_by_sequence_length/bucket/cond_7/Switch"
  device: "/device:CPU:0"
  attr {
    key: "T"
    value {
      type: DT_BOOL
    }
  }
  attr {
    key: "_output_shapes"
    value {
      list {
        shape {
        }
      }
    }
  }
}
node {
  name: "bucket_by_sequence_length/bucket/cond_7/pred_id"
  op: "Identity"
  input: "bucket_by_sequence_length/bucket/Equal_7"
  device: "/device:CPU:0"
  attr {
    key: "T"
    value {
      type: DT_BOOL
    }
  }
  attr {
    key: "_output_shapes"
    value {
      list {
        shape {
        }
      }
    }
  }
}
node {
  name: "bucket_by_sequence_length/bucket/cond_7/bucket_queue_7_enqueue"
  op: "QueueEnqueueV2"
  input: "bucket_by_sequence_length/bucket/cond_7/bucket_queue_7_enqueue/Switch:1"
  input: "bucket_by_sequence_length/bucket/cond_7/bucket_queue_7_enqueue/Switch_1:1"
  input: "bucket_by_sequence_length/bucket/cond_7/bucket_queue_7_enqueue/Switch_2:1"
  input: "bucket_by_sequence_length/bucket/cond_7/bucket_queue_7_enqueue/Switch_3:1"
  input: "bucket_by_sequence_length/bucket/cond_7/bucket_queue_7_enqueue/Switch_4:1"
  input: "bucket_by_sequence_length/bucket/cond_7/bucket_queue_7_enqueue/Switch_5:1"
  input: "bucket_by_sequence_length/bucket/cond_7/bucket_queue_7_enqueue/Switch_6:1"
  device: "/device:CPU:0"
  attr {
    key: "Tcomponents"
    value {
      list {
        type: DT_INT32
        type: DT_FLOAT
        type: DT_STRING
        type: DT_INT64
        type: DT_STRING
        type: DT_STRING
      }
    }
  }
  attr {
    key: "timeout_ms"
    value {
      i: -1
    }
  }
}
node {
  name: "bucket_by_sequence_length/bucket/cond_7/bucket_queue_7_enqueue/Switch"
  op: "Switch"
  input: "bucket_by_sequence_length/bucket/bucket_queue_7"
  input: "bucket_by_sequence_length/bucket/cond_7/pred_id"
  device: "/device:CPU:0"
  attr {
    key: "T"
    value {
      type: DT_RESOURCE
    }
  }
  attr {
    key: "_class"
    value {
      list {
        s: "loc:@bucket_by_sequence_length/bucket/bucket_queue_7"
      }
    }
  }
  attr {
    key: "_output_shapes"
    value {
      list {
        shape {
        }
        shape {
        }
      }
    }
  }
}
node {
  name: "bucket_by_sequence_length/bucket/cond_7/bucket_queue_7_enqueue/Switch_1"
  op: "Switch"
  input: "Cast"
  input: "bucket_by_sequence_length/bucket/cond_7/pred_id"
  device: "/device:CPU:0"
  attr {
    key: "T"
    value {
      type: DT_INT32
    }
  }
  attr {
    key: "_class"
    value {
      list {
        s: "loc:@Cast"
      }
    }
  }
  attr {
    key: "_output_shapes"
    value {
      list {
        shape {
          dim {
            size: 1
          }
        }
        shape {
          dim {
            size: 1
          }
        }
      }
    }
  }
}
node {
  name: "bucket_by_sequence_length/bucket/cond_7/bucket_queue_7_enqueue/Switch_2"
  op: "Switch"
  input: "concat"
  input: "bucket_by_sequence_length/bucket/cond_7/pred_id"
  device: "/device:CPU:0"
  attr {
    key: "T"
    value {
      type: DT_FLOAT
    }
  }
  attr {
    key: "_class"
    value {
      list {
        s: "loc:@concat"
      }
    }
  }
  attr {
    key: "_output_shapes"
    value {
      list {
        shape {
          dim {
            size: -1
          }
          dim {
            size: -1
          }
          dim {
            size: 1
          }
        }
        shape {
          dim {
            size: -1
          }
          dim {
            size: -1
          }
          dim {
            size: 1
          }
        }
      }
    }
  }
}
node {
  name: "bucket_by_sequence_length/bucket/cond_7/bucket_queue_7_enqueue/Switch_3"
  op: "Switch"
  input: "SerializeSparse"
  input: "bucket_by_sequence_length/bucket/cond_7/pred_id"
  device: "/device:CPU:0"
  attr {
    key: "T"
    value {
      type: DT_STRING
    }
  }
  attr {
    key: "_class"
    value {
      list {
        s: "loc:@SerializeSparse"
      }
    }
  }
  attr {
    key: "_output_shapes"
    value {
      list {
        shape {
          dim {
            size: 3
          }
        }
        shape {
          dim {
            size: 3
          }
        }
      }
    }
  }
}
node {
  name: "bucket_by_sequence_length/bucket/cond_7/bucket_queue_7_enqueue/Switch_4"
  op: "Switch"
  input: "ParseSingleExample/ParseSingleExample:6"
  input: "bucket_by_sequence_length/bucket/cond_7/pred_id"
  device: "/device:CPU:0"
  attr {
    key: "T"
    value {
      type: DT_INT64
    }
  }
  attr {
    key: "_class"
    value {
      list {
        s: "loc:@ParseSingleExample/ParseSingleExample"
      }
    }
  }
  attr {
    key: "_output_shapes"
    value {
      list {
        shape {
          dim {
            size: 1
          }
        }
        shape {
          dim {
            size: 1
          }
        }
      }
    }
  }
}
node {
  name: "bucket_by_sequence_length/bucket/cond_7/bucket_queue_7_enqueue/Switch_5"
  op: "Switch"
  input: "ParseSingleExample/ParseSingleExample:7"
  input: "bucket_by_sequence_length/bucket/cond_7/pred_id"
  device: "/device:CPU:0"
  attr {
    key: "T"
    value {
      type: DT_STRING
    }
  }
  attr {
    key: "_class"
    value {
      list {
        s: "loc:@ParseSingleExample/ParseSingleExample"
      }
    }
  }
  attr {
    key: "_output_shapes"
    value {
      list {
        shape {
        }
        shape {
        }
      }
    }
  }
}
node {
  name: "bucket_by_sequence_length/bucket/cond_7/bucket_queue_7_enqueue/Switch_6"
  op: "Switch"
  input: "ParseSingleExample/ParseSingleExample:4"
  input: "bucket_by_sequence_length/bucket/cond_7/pred_id"
  device: "/device:CPU:0"
  attr {
    key: "T"
    value {
      type: DT_STRING
    }
  }
  attr {
    key: "_class"
    value {
      list {
        s: "loc:@ParseSingleExample/ParseSingleExample"
      }
    }
  }
  attr {
    key: "_output_shapes"
    value {
      list {
        shape {
        }
        shape {
        }
      }
    }
  }
}
node {
  name: "bucket_by_sequence_length/bucket/cond_7/control_dependency"
  op: "Identity"
  input: "bucket_by_sequence_length/bucket/cond_7/switch_t"
  input: "^bucket_by_sequence_length/bucket/cond_7/bucket_queue_7_enqueue"
  device: "/device:CPU:0"
  attr {
    key: "T"
    value {
      type: DT_BOOL
    }
  }
  attr {
    key: "_class"
    value {
      list {
        s: "loc:@bucket_by_sequence_length/bucket/cond_7/switch_t"
      }
    }
  }
  attr {
    key: "_output_shapes"
    value {
      list {
        shape {
        }
      }
    }
  }
}
node {
  name: "bucket_by_sequence_length/bucket/cond_7/NoOp"
  op: "NoOp"
  input: "^bucket_by_sequence_length/bucket/cond_7/switch_f"
  device: "/device:CPU:0"
}
node {
  name: "bucket_by_sequence_length/bucket/cond_7/control_dependency_1"
  op: "Identity"
  input: "bucket_by_sequence_length/bucket/cond_7/switch_f"
  input: "^bucket_by_sequence_length/bucket/cond_7/NoOp"
  device: "/device:CPU:0"
  attr {
    key: "T"
    value {
      type: DT_BOOL
    }
  }
  attr {
    key: "_class"
    value {
      list {
        s: "loc:@bucket_by_sequence_length/bucket/cond_7/switch_f"
      }
    }
  }
  attr {
    key: "_output_shapes"
    value {
      list {
        shape {
        }
      }
    }
  }
}
node {
  name: "bucket_by_sequence_length/bucket/cond_7/Merge"
  op: "Merge"
  input: "bucket_by_sequence_length/bucket/cond_7/control_dependency_1"
  input: "bucket_by_sequence_length/bucket/cond_7/control_dependency"
  device: "/device:CPU:0"
  attr {
    key: "N"
    value {
      i: 2
    }
  }
  attr {
    key: "T"
    value {
      type: DT_BOOL
    }
  }
  attr {
    key: "_output_shapes"
    value {
      list {
        shape {
        }
        shape {
        }
      }
    }
  }
}
node {
  name: "bucket_by_sequence_length/bucket/Equal_8/y"
  op: "Const"
  device: "/device:CPU:0"
  attr {
    key: "_output_shapes"
    value {
      list {
        shape {
        }
      }
    }
  }
  attr {
    key: "dtype"
    value {
      type: DT_INT32
    }
  }
  attr {
    key: "value"
    value {
      tensor {
        dtype: DT_INT32
        tensor_shape {
        }
        int_val: 8
      }
    }
  }
}
node {
  name: "bucket_by_sequence_length/bucket/Equal_8"
  op: "Equal"
  input: "bucket_by_sequence_length/ToInt32"
  input: "bucket_by_sequence_length/bucket/Equal_8/y"
  device: "/device:CPU:0"
  attr {
    key: "T"
    value {
      type: DT_INT32
    }
  }
  attr {
    key: "_output_shapes"
    value {
      list {
        shape {
        }
      }
    }
  }
}
node {
  name: "bucket_by_sequence_length/bucket/cond_8/Switch"
  op: "Switch"
  input: "bucket_by_sequence_length/bucket/Equal_8"
  input: "bucket_by_sequence_length/bucket/Equal_8"
  device: "/device:CPU:0"
  attr {
    key: "T"
    value {
      type: DT_BOOL
    }
  }
  attr {
    key: "_output_shapes"
    value {
      list {
        shape {
        }
        shape {
        }
      }
    }
  }
}
node {
  name: "bucket_by_sequence_length/bucket/cond_8/switch_t"
  op: "Identity"
  input: "bucket_by_sequence_length/bucket/cond_8/Switch:1"
  device: "/device:CPU:0"
  attr {
    key: "T"
    value {
      type: DT_BOOL
    }
  }
  attr {
    key: "_output_shapes"
    value {
      list {
        shape {
        }
      }
    }
  }
}
node {
  name: "bucket_by_sequence_length/bucket/cond_8/switch_f"
  op: "Identity"
  input: "bucket_by_sequence_length/bucket/cond_8/Switch"
  device: "/device:CPU:0"
  attr {
    key: "T"
    value {
      type: DT_BOOL
    }
  }
  attr {
    key: "_output_shapes"
    value {
      list {
        shape {
        }
      }
    }
  }
}
node {
  name: "bucket_by_sequence_length/bucket/cond_8/pred_id"
  op: "Identity"
  input: "bucket_by_sequence_length/bucket/Equal_8"
  device: "/device:CPU:0"
  attr {
    key: "T"
    value {
      type: DT_BOOL
    }
  }
  attr {
    key: "_output_shapes"
    value {
      list {
        shape {
        }
      }
    }
  }
}
node {
  name: "bucket_by_sequence_length/bucket/cond_8/bucket_queue_8_enqueue"
  op: "QueueEnqueueV2"
  input: "bucket_by_sequence_length/bucket/cond_8/bucket_queue_8_enqueue/Switch:1"
  input: "bucket_by_sequence_length/bucket/cond_8/bucket_queue_8_enqueue/Switch_1:1"
  input: "bucket_by_sequence_length/bucket/cond_8/bucket_queue_8_enqueue/Switch_2:1"
  input: "bucket_by_sequence_length/bucket/cond_8/bucket_queue_8_enqueue/Switch_3:1"
  input: "bucket_by_sequence_length/bucket/cond_8/bucket_queue_8_enqueue/Switch_4:1"
  input: "bucket_by_sequence_length/bucket/cond_8/bucket_queue_8_enqueue/Switch_5:1"
  input: "bucket_by_sequence_length/bucket/cond_8/bucket_queue_8_enqueue/Switch_6:1"
  device: "/device:CPU:0"
  attr {
    key: "Tcomponents"
    value {
      list {
        type: DT_INT32
        type: DT_FLOAT
        type: DT_STRING
        type: DT_INT64
        type: DT_STRING
        type: DT_STRING
      }
    }
  }
  attr {
    key: "timeout_ms"
    value {
      i: -1
    }
  }
}
node {
  name: "bucket_by_sequence_length/bucket/cond_8/bucket_queue_8_enqueue/Switch"
  op: "Switch"
  input: "bucket_by_sequence_length/bucket/bucket_queue_8"
  input: "bucket_by_sequence_length/bucket/cond_8/pred_id"
  device: "/device:CPU:0"
  attr {
    key: "T"
    value {
      type: DT_RESOURCE
    }
  }
  attr {
    key: "_class"
    value {
      list {
        s: "loc:@bucket_by_sequence_length/bucket/bucket_queue_8"
      }
    }
  }
  attr {
    key: "_output_shapes"
    value {
      list {
        shape {
        }
        shape {
        }
      }
    }
  }
}
node {
  name: "bucket_by_sequence_length/bucket/cond_8/bucket_queue_8_enqueue/Switch_1"
  op: "Switch"
  input: "Cast"
  input: "bucket_by_sequence_length/bucket/cond_8/pred_id"
  device: "/device:CPU:0"
  attr {
    key: "T"
    value {
      type: DT_INT32
    }
  }
  attr {
    key: "_class"
    value {
      list {
        s: "loc:@Cast"
      }
    }
  }
  attr {
    key: "_output_shapes"
    value {
      list {
        shape {
          dim {
            size: 1
          }
        }
        shape {
          dim {
            size: 1
          }
        }
      }
    }
  }
}
node {
  name: "bucket_by_sequence_length/bucket/cond_8/bucket_queue_8_enqueue/Switch_2"
  op: "Switch"
  input: "concat"
  input: "bucket_by_sequence_length/bucket/cond_8/pred_id"
  device: "/device:CPU:0"
  attr {
    key: "T"
    value {
      type: DT_FLOAT
    }
  }
  attr {
    key: "_class"
    value {
      list {
        s: "loc:@concat"
      }
    }
  }
  attr {
    key: "_output_shapes"
    value {
      list {
        shape {
          dim {
            size: -1
          }
          dim {
            size: -1
          }
          dim {
            size: 1
          }
        }
        shape {
          dim {
            size: -1
          }
          dim {
            size: -1
          }
          dim {
            size: 1
          }
        }
      }
    }
  }
}
node {
  name: "bucket_by_sequence_length/bucket/cond_8/bucket_queue_8_enqueue/Switch_3"
  op: "Switch"
  input: "SerializeSparse"
  input: "bucket_by_sequence_length/bucket/cond_8/pred_id"
  device: "/device:CPU:0"
  attr {
    key: "T"
    value {
      type: DT_STRING
    }
  }
  attr {
    key: "_class"
    value {
      list {
        s: "loc:@SerializeSparse"
      }
    }
  }
  attr {
    key: "_output_shapes"
    value {
      list {
        shape {
          dim {
            size: 3
          }
        }
        shape {
          dim {
            size: 3
          }
        }
      }
    }
  }
}
node {
  name: "bucket_by_sequence_length/bucket/cond_8/bucket_queue_8_enqueue/Switch_4"
  op: "Switch"
  input: "ParseSingleExample/ParseSingleExample:6"
  input: "bucket_by_sequence_length/bucket/cond_8/pred_id"
  device: "/device:CPU:0"
  attr {
    key: "T"
    value {
      type: DT_INT64
    }
  }
  attr {
    key: "_class"
    value {
      list {
        s: "loc:@ParseSingleExample/ParseSingleExample"
      }
    }
  }
  attr {
    key: "_output_shapes"
    value {
      list {
        shape {
          dim {
            size: 1
          }
        }
        shape {
          dim {
            size: 1
          }
        }
      }
    }
  }
}
node {
  name: "bucket_by_sequence_length/bucket/cond_8/bucket_queue_8_enqueue/Switch_5"
  op: "Switch"
  input: "ParseSingleExample/ParseSingleExample:7"
  input: "bucket_by_sequence_length/bucket/cond_8/pred_id"
  device: "/device:CPU:0"
  attr {
    key: "T"
    value {
      type: DT_STRING
    }
  }
  attr {
    key: "_class"
    value {
      list {
        s: "loc:@ParseSingleExample/ParseSingleExample"
      }
    }
  }
  attr {
    key: "_output_shapes"
    value {
      list {
        shape {
        }
        shape {
        }
      }
    }
  }
}
node {
  name: "bucket_by_sequence_length/bucket/cond_8/bucket_queue_8_enqueue/Switch_6"
  op: "Switch"
  input: "ParseSingleExample/ParseSingleExample:4"
  input: "bucket_by_sequence_length/bucket/cond_8/pred_id"
  device: "/device:CPU:0"
  attr {
    key: "T"
    value {
      type: DT_STRING
    }
  }
  attr {
    key: "_class"
    value {
      list {
        s: "loc:@ParseSingleExample/ParseSingleExample"
      }
    }
  }
  attr {
    key: "_output_shapes"
    value {
      list {
        shape {
        }
        shape {
        }
      }
    }
  }
}
node {
  name: "bucket_by_sequence_length/bucket/cond_8/control_dependency"
  op: "Identity"
  input: "bucket_by_sequence_length/bucket/cond_8/switch_t"
  input: "^bucket_by_sequence_length/bucket/cond_8/bucket_queue_8_enqueue"
  device: "/device:CPU:0"
  attr {
    key: "T"
    value {
      type: DT_BOOL
    }
  }
  attr {
    key: "_class"
    value {
      list {
        s: "loc:@bucket_by_sequence_length/bucket/cond_8/switch_t"
      }
    }
  }
  attr {
    key: "_output_shapes"
    value {
      list {
        shape {
        }
      }
    }
  }
}
node {
  name: "bucket_by_sequence_length/bucket/cond_8/NoOp"
  op: "NoOp"
  input: "^bucket_by_sequence_length/bucket/cond_8/switch_f"
  device: "/device:CPU:0"
}
node {
  name: "bucket_by_sequence_length/bucket/cond_8/control_dependency_1"
  op: "Identity"
  input: "bucket_by_sequence_length/bucket/cond_8/switch_f"
  input: "^bucket_by_sequence_length/bucket/cond_8/NoOp"
  device: "/device:CPU:0"
  attr {
    key: "T"
    value {
      type: DT_BOOL
    }
  }
  attr {
    key: "_class"
    value {
      list {
        s: "loc:@bucket_by_sequence_length/bucket/cond_8/switch_f"
      }
    }
  }
  attr {
    key: "_output_shapes"
    value {
      list {
        shape {
        }
      }
    }
  }
}
node {
  name: "bucket_by_sequence_length/bucket/cond_8/Merge"
  op: "Merge"
  input: "bucket_by_sequence_length/bucket/cond_8/control_dependency_1"
  input: "bucket_by_sequence_length/bucket/cond_8/control_dependency"
  device: "/device:CPU:0"
  attr {
    key: "N"
    value {
      i: 2
    }
  }
  attr {
    key: "T"
    value {
      type: DT_BOOL
    }
  }
  attr {
    key: "_output_shapes"
    value {
      list {
        shape {
        }
        shape {
        }
      }
    }
  }
}
node {
  name: "bucket_by_sequence_length/bucket/group_enqueues"
  op: "NoOp"
  input: "^bucket_by_sequence_length/bucket/cond/Merge"
  input: "^bucket_by_sequence_length/bucket/cond_1/Merge"
  input: "^bucket_by_sequence_length/bucket/cond_2/Merge"
  input: "^bucket_by_sequence_length/bucket/cond_3/Merge"
  input: "^bucket_by_sequence_length/bucket/cond_4/Merge"
  input: "^bucket_by_sequence_length/bucket/cond_5/Merge"
  input: "^bucket_by_sequence_length/bucket/cond_6/Merge"
  input: "^bucket_by_sequence_length/bucket/cond_7/Merge"
  input: "^bucket_by_sequence_length/bucket/cond_8/Merge"
  device: "/device:CPU:0"
}
node {
  name: "bucket_by_sequence_length/bucket/Const_1"
  op: "Const"
  device: "/device:CPU:0"
  attr {
    key: "_output_shapes"
    value {
      list {
        shape {
        }
      }
    }
  }
  attr {
    key: "dtype"
    value {
      type: DT_INT32
    }
  }
  attr {
    key: "value"
    value {
      tensor {
        dtype: DT_INT32
        tensor_shape {
        }
        int_val: 0
      }
    }
  }
}
node {
  name: "bucket_by_sequence_length/bucket/read_bucket_0/n"
  op: "Const"
  device: "/device:CPU:0"
  attr {
    key: "_output_shapes"
    value {
      list {
        shape {
        }
      }
    }
  }
  attr {
    key: "dtype"
    value {
      type: DT_INT32
    }
  }
  attr {
    key: "value"
    value {
      tensor {
        dtype: DT_INT32
        tensor_shape {
        }
        int_val: 32
      }
    }
  }
}
node {
  name: "bucket_by_sequence_length/bucket/read_bucket_0"
  op: "QueueDequeueManyV2"
  input: "bucket_by_sequence_length/bucket/bucket_queue_0"
  input: "bucket_by_sequence_length/bucket/read_bucket_0/n"
  device: "/device:CPU:0"
  attr {
    key: "_output_shapes"
    value {
      list {
        shape {
          dim {
            size: 32
          }
          dim {
            size: 1
          }
        }
        shape {
          dim {
            size: 32
          }
          dim {
            size: -1
          }
          dim {
            size: -1
          }
          dim {
            size: 1
          }
        }
        shape {
          dim {
            size: 32
          }
          dim {
            size: 3
          }
        }
        shape {
          dim {
            size: 32
          }
          dim {
            size: 1
          }
        }
        shape {
          dim {
            size: 32
          }
        }
        shape {
          dim {
            size: 32
          }
        }
      }
    }
  }
  attr {
    key: "component_types"
    value {
      list {
        type: DT_INT32
        type: DT_FLOAT
        type: DT_STRING
        type: DT_INT64
        type: DT_STRING
        type: DT_STRING
      }
    }
  }
  attr {
    key: "timeout_ms"
    value {
      i: -1
    }
  }
}
node {
  name: "bucket_by_sequence_length/bucket/enqueue_from_bucket_0"
  op: "QueueEnqueueV2"
  input: "bucket_by_sequence_length/bucket/top_queue"
  input: "bucket_by_sequence_length/bucket/Const_1"
  input: "bucket_by_sequence_length/bucket/read_bucket_0"
  input: "bucket_by_sequence_length/bucket/read_bucket_0:1"
  input: "bucket_by_sequence_length/bucket/read_bucket_0:2"
  input: "bucket_by_sequence_length/bucket/read_bucket_0:3"
  input: "bucket_by_sequence_length/bucket/read_bucket_0:4"
  input: "bucket_by_sequence_length/bucket/read_bucket_0:5"
  device: "/device:CPU:0"
  attr {
    key: "Tcomponents"
    value {
      list {
        type: DT_INT32
        type: DT_INT32
        type: DT_FLOAT
        type: DT_STRING
        type: DT_INT64
        type: DT_STRING
        type: DT_STRING
      }
    }
  }
  attr {
    key: "timeout_ms"
    value {
      i: -1
    }
  }
}
node {
  name: "bucket_by_sequence_length/bucket/Const_2"
  op: "Const"
  device: "/device:CPU:0"
  attr {
    key: "_output_shapes"
    value {
      list {
        shape {
        }
      }
    }
  }
  attr {
    key: "dtype"
    value {
      type: DT_INT32
    }
  }
  attr {
    key: "value"
    value {
      tensor {
        dtype: DT_INT32
        tensor_shape {
        }
        int_val: 1
      }
    }
  }
}
node {
  name: "bucket_by_sequence_length/bucket/read_bucket_1/n"
  op: "Const"
  device: "/device:CPU:0"
  attr {
    key: "_output_shapes"
    value {
      list {
        shape {
        }
      }
    }
  }
  attr {
    key: "dtype"
    value {
      type: DT_INT32
    }
  }
  attr {
    key: "value"
    value {
      tensor {
        dtype: DT_INT32
        tensor_shape {
        }
        int_val: 32
      }
    }
  }
}
node {
  name: "bucket_by_sequence_length/bucket/read_bucket_1"
  op: "QueueDequeueManyV2"
  input: "bucket_by_sequence_length/bucket/bucket_queue_1"
  input: "bucket_by_sequence_length/bucket/read_bucket_1/n"
  device: "/device:CPU:0"
  attr {
    key: "_output_shapes"
    value {
      list {
        shape {
          dim {
            size: 32
          }
          dim {
            size: 1
          }
        }
        shape {
          dim {
            size: 32
          }
          dim {
            size: -1
          }
          dim {
            size: -1
          }
          dim {
            size: 1
          }
        }
        shape {
          dim {
            size: 32
          }
          dim {
            size: 3
          }
        }
        shape {
          dim {
            size: 32
          }
          dim {
            size: 1
          }
        }
        shape {
          dim {
            size: 32
          }
        }
        shape {
          dim {
            size: 32
          }
        }
      }
    }
  }
  attr {
    key: "component_types"
    value {
      list {
        type: DT_INT32
        type: DT_FLOAT
        type: DT_STRING
        type: DT_INT64
        type: DT_STRING
        type: DT_STRING
      }
    }
  }
  attr {
    key: "timeout_ms"
    value {
      i: -1
    }
  }
}
node {
  name: "bucket_by_sequence_length/bucket/enqueue_from_bucket_1"
  op: "QueueEnqueueV2"
  input: "bucket_by_sequence_length/bucket/top_queue"
  input: "bucket_by_sequence_length/bucket/Const_2"
  input: "bucket_by_sequence_length/bucket/read_bucket_1"
  input: "bucket_by_sequence_length/bucket/read_bucket_1:1"
  input: "bucket_by_sequence_length/bucket/read_bucket_1:2"
  input: "bucket_by_sequence_length/bucket/read_bucket_1:3"
  input: "bucket_by_sequence_length/bucket/read_bucket_1:4"
  input: "bucket_by_sequence_length/bucket/read_bucket_1:5"
  device: "/device:CPU:0"
  attr {
    key: "Tcomponents"
    value {
      list {
        type: DT_INT32
        type: DT_INT32
        type: DT_FLOAT
        type: DT_STRING
        type: DT_INT64
        type: DT_STRING
        type: DT_STRING
      }
    }
  }
  attr {
    key: "timeout_ms"
    value {
      i: -1
    }
  }
}
node {
  name: "bucket_by_sequence_length/bucket/Const_3"
  op: "Const"
  device: "/device:CPU:0"
  attr {
    key: "_output_shapes"
    value {
      list {
        shape {
        }
      }
    }
  }
  attr {
    key: "dtype"
    value {
      type: DT_INT32
    }
  }
  attr {
    key: "value"
    value {
      tensor {
        dtype: DT_INT32
        tensor_shape {
        }
        int_val: 2
      }
    }
  }
}
node {
  name: "bucket_by_sequence_length/bucket/read_bucket_2/n"
  op: "Const"
  device: "/device:CPU:0"
  attr {
    key: "_output_shapes"
    value {
      list {
        shape {
        }
      }
    }
  }
  attr {
    key: "dtype"
    value {
      type: DT_INT32
    }
  }
  attr {
    key: "value"
    value {
      tensor {
        dtype: DT_INT32
        tensor_shape {
        }
        int_val: 32
      }
    }
  }
}
node {
  name: "bucket_by_sequence_length/bucket/read_bucket_2"
  op: "QueueDequeueManyV2"
  input: "bucket_by_sequence_length/bucket/bucket_queue_2"
  input: "bucket_by_sequence_length/bucket/read_bucket_2/n"
  device: "/device:CPU:0"
  attr {
    key: "_output_shapes"
    value {
      list {
        shape {
          dim {
            size: 32
          }
          dim {
            size: 1
          }
        }
        shape {
          dim {
            size: 32
          }
          dim {
            size: -1
          }
          dim {
            size: -1
          }
          dim {
            size: 1
          }
        }
        shape {
          dim {
            size: 32
          }
          dim {
            size: 3
          }
        }
        shape {
          dim {
            size: 32
          }
          dim {
            size: 1
          }
        }
        shape {
          dim {
            size: 32
          }
        }
        shape {
          dim {
            size: 32
          }
        }
      }
    }
  }
  attr {
    key: "component_types"
    value {
      list {
        type: DT_INT32
        type: DT_FLOAT
        type: DT_STRING
        type: DT_INT64
        type: DT_STRING
        type: DT_STRING
      }
    }
  }
  attr {
    key: "timeout_ms"
    value {
      i: -1
    }
  }
}
node {
  name: "bucket_by_sequence_length/bucket/enqueue_from_bucket_2"
  op: "QueueEnqueueV2"
  input: "bucket_by_sequence_length/bucket/top_queue"
  input: "bucket_by_sequence_length/bucket/Const_3"
  input: "bucket_by_sequence_length/bucket/read_bucket_2"
  input: "bucket_by_sequence_length/bucket/read_bucket_2:1"
  input: "bucket_by_sequence_length/bucket/read_bucket_2:2"
  input: "bucket_by_sequence_length/bucket/read_bucket_2:3"
  input: "bucket_by_sequence_length/bucket/read_bucket_2:4"
  input: "bucket_by_sequence_length/bucket/read_bucket_2:5"
  device: "/device:CPU:0"
  attr {
    key: "Tcomponents"
    value {
      list {
        type: DT_INT32
        type: DT_INT32
        type: DT_FLOAT
        type: DT_STRING
        type: DT_INT64
        type: DT_STRING
        type: DT_STRING
      }
    }
  }
  attr {
    key: "timeout_ms"
    value {
      i: -1
    }
  }
}
node {
  name: "bucket_by_sequence_length/bucket/Const_4"
  op: "Const"
  device: "/device:CPU:0"
  attr {
    key: "_output_shapes"
    value {
      list {
        shape {
        }
      }
    }
  }
  attr {
    key: "dtype"
    value {
      type: DT_INT32
    }
  }
  attr {
    key: "value"
    value {
      tensor {
        dtype: DT_INT32
        tensor_shape {
        }
        int_val: 3
      }
    }
  }
}
node {
  name: "bucket_by_sequence_length/bucket/read_bucket_3/n"
  op: "Const"
  device: "/device:CPU:0"
  attr {
    key: "_output_shapes"
    value {
      list {
        shape {
        }
      }
    }
  }
  attr {
    key: "dtype"
    value {
      type: DT_INT32
    }
  }
  attr {
    key: "value"
    value {
      tensor {
        dtype: DT_INT32
        tensor_shape {
        }
        int_val: 32
      }
    }
  }
}
node {
  name: "bucket_by_sequence_length/bucket/read_bucket_3"
  op: "QueueDequeueManyV2"
  input: "bucket_by_sequence_length/bucket/bucket_queue_3"
  input: "bucket_by_sequence_length/bucket/read_bucket_3/n"
  device: "/device:CPU:0"
  attr {
    key: "_output_shapes"
    value {
      list {
        shape {
          dim {
            size: 32
          }
          dim {
            size: 1
          }
        }
        shape {
          dim {
            size: 32
          }
          dim {
            size: -1
          }
          dim {
            size: -1
          }
          dim {
            size: 1
          }
        }
        shape {
          dim {
            size: 32
          }
          dim {
            size: 3
          }
        }
        shape {
          dim {
            size: 32
          }
          dim {
            size: 1
          }
        }
        shape {
          dim {
            size: 32
          }
        }
        shape {
          dim {
            size: 32
          }
        }
      }
    }
  }
  attr {
    key: "component_types"
    value {
      list {
        type: DT_INT32
        type: DT_FLOAT
        type: DT_STRING
        type: DT_INT64
        type: DT_STRING
        type: DT_STRING
      }
    }
  }
  attr {
    key: "timeout_ms"
    value {
      i: -1
    }
  }
}
node {
  name: "bucket_by_sequence_length/bucket/enqueue_from_bucket_3"
  op: "QueueEnqueueV2"
  input: "bucket_by_sequence_length/bucket/top_queue"
  input: "bucket_by_sequence_length/bucket/Const_4"
  input: "bucket_by_sequence_length/bucket/read_bucket_3"
  input: "bucket_by_sequence_length/bucket/read_bucket_3:1"
  input: "bucket_by_sequence_length/bucket/read_bucket_3:2"
  input: "bucket_by_sequence_length/bucket/read_bucket_3:3"
  input: "bucket_by_sequence_length/bucket/read_bucket_3:4"
  input: "bucket_by_sequence_length/bucket/read_bucket_3:5"
  device: "/device:CPU:0"
  attr {
    key: "Tcomponents"
    value {
      list {
        type: DT_INT32
        type: DT_INT32
        type: DT_FLOAT
        type: DT_STRING
        type: DT_INT64
        type: DT_STRING
        type: DT_STRING
      }
    }
  }
  attr {
    key: "timeout_ms"
    value {
      i: -1
    }
  }
}
node {
  name: "bucket_by_sequence_length/bucket/Const_5"
  op: "Const"
  device: "/device:CPU:0"
  attr {
    key: "_output_shapes"
    value {
      list {
        shape {
        }
      }
    }
  }
  attr {
    key: "dtype"
    value {
      type: DT_INT32
    }
  }
  attr {
    key: "value"
    value {
      tensor {
        dtype: DT_INT32
        tensor_shape {
        }
        int_val: 4
      }
    }
  }
}
node {
  name: "bucket_by_sequence_length/bucket/read_bucket_4/n"
  op: "Const"
  device: "/device:CPU:0"
  attr {
    key: "_output_shapes"
    value {
      list {
        shape {
        }
      }
    }
  }
  attr {
    key: "dtype"
    value {
      type: DT_INT32
    }
  }
  attr {
    key: "value"
    value {
      tensor {
        dtype: DT_INT32
        tensor_shape {
        }
        int_val: 32
      }
    }
  }
}
node {
  name: "bucket_by_sequence_length/bucket/read_bucket_4"
  op: "QueueDequeueManyV2"
  input: "bucket_by_sequence_length/bucket/bucket_queue_4"
  input: "bucket_by_sequence_length/bucket/read_bucket_4/n"
  device: "/device:CPU:0"
  attr {
    key: "_output_shapes"
    value {
      list {
        shape {
          dim {
            size: 32
          }
          dim {
            size: 1
          }
        }
        shape {
          dim {
            size: 32
          }
          dim {
            size: -1
          }
          dim {
            size: -1
          }
          dim {
            size: 1
          }
        }
        shape {
          dim {
            size: 32
          }
          dim {
            size: 3
          }
        }
        shape {
          dim {
            size: 32
          }
          dim {
            size: 1
          }
        }
        shape {
          dim {
            size: 32
          }
        }
        shape {
          dim {
            size: 32
          }
        }
      }
    }
  }
  attr {
    key: "component_types"
    value {
      list {
        type: DT_INT32
        type: DT_FLOAT
        type: DT_STRING
        type: DT_INT64
        type: DT_STRING
        type: DT_STRING
      }
    }
  }
  attr {
    key: "timeout_ms"
    value {
      i: -1
    }
  }
}
node {
  name: "bucket_by_sequence_length/bucket/enqueue_from_bucket_4"
  op: "QueueEnqueueV2"
  input: "bucket_by_sequence_length/bucket/top_queue"
  input: "bucket_by_sequence_length/bucket/Const_5"
  input: "bucket_by_sequence_length/bucket/read_bucket_4"
  input: "bucket_by_sequence_length/bucket/read_bucket_4:1"
  input: "bucket_by_sequence_length/bucket/read_bucket_4:2"
  input: "bucket_by_sequence_length/bucket/read_bucket_4:3"
  input: "bucket_by_sequence_length/bucket/read_bucket_4:4"
  input: "bucket_by_sequence_length/bucket/read_bucket_4:5"
  device: "/device:CPU:0"
  attr {
    key: "Tcomponents"
    value {
      list {
        type: DT_INT32
        type: DT_INT32
        type: DT_FLOAT
        type: DT_STRING
        type: DT_INT64
        type: DT_STRING
        type: DT_STRING
      }
    }
  }
  attr {
    key: "timeout_ms"
    value {
      i: -1
    }
  }
}
node {
  name: "bucket_by_sequence_length/bucket/Const_6"
  op: "Const"
  device: "/device:CPU:0"
  attr {
    key: "_output_shapes"
    value {
      list {
        shape {
        }
      }
    }
  }
  attr {
    key: "dtype"
    value {
      type: DT_INT32
    }
  }
  attr {
    key: "value"
    value {
      tensor {
        dtype: DT_INT32
        tensor_shape {
        }
        int_val: 5
      }
    }
  }
}
node {
  name: "bucket_by_sequence_length/bucket/read_bucket_5/n"
  op: "Const"
  device: "/device:CPU:0"
  attr {
    key: "_output_shapes"
    value {
      list {
        shape {
        }
      }
    }
  }
  attr {
    key: "dtype"
    value {
      type: DT_INT32
    }
  }
  attr {
    key: "value"
    value {
      tensor {
        dtype: DT_INT32
        tensor_shape {
        }
        int_val: 32
      }
    }
  }
}
node {
  name: "bucket_by_sequence_length/bucket/read_bucket_5"
  op: "QueueDequeueManyV2"
  input: "bucket_by_sequence_length/bucket/bucket_queue_5"
  input: "bucket_by_sequence_length/bucket/read_bucket_5/n"
  device: "/device:CPU:0"
  attr {
    key: "_output_shapes"
    value {
      list {
        shape {
          dim {
            size: 32
          }
          dim {
            size: 1
          }
        }
        shape {
          dim {
            size: 32
          }
          dim {
            size: -1
          }
          dim {
            size: -1
          }
          dim {
            size: 1
          }
        }
        shape {
          dim {
            size: 32
          }
          dim {
            size: 3
          }
        }
        shape {
          dim {
            size: 32
          }
          dim {
            size: 1
          }
        }
        shape {
          dim {
            size: 32
          }
        }
        shape {
          dim {
            size: 32
          }
        }
      }
    }
  }
  attr {
    key: "component_types"
    value {
      list {
        type: DT_INT32
        type: DT_FLOAT
        type: DT_STRING
        type: DT_INT64
        type: DT_STRING
        type: DT_STRING
      }
    }
  }
  attr {
    key: "timeout_ms"
    value {
      i: -1
    }
  }
}
node {
  name: "bucket_by_sequence_length/bucket/enqueue_from_bucket_5"
  op: "QueueEnqueueV2"
  input: "bucket_by_sequence_length/bucket/top_queue"
  input: "bucket_by_sequence_length/bucket/Const_6"
  input: "bucket_by_sequence_length/bucket/read_bucket_5"
  input: "bucket_by_sequence_length/bucket/read_bucket_5:1"
  input: "bucket_by_sequence_length/bucket/read_bucket_5:2"
  input: "bucket_by_sequence_length/bucket/read_bucket_5:3"
  input: "bucket_by_sequence_length/bucket/read_bucket_5:4"
  input: "bucket_by_sequence_length/bucket/read_bucket_5:5"
  device: "/device:CPU:0"
  attr {
    key: "Tcomponents"
    value {
      list {
        type: DT_INT32
        type: DT_INT32
        type: DT_FLOAT
        type: DT_STRING
        type: DT_INT64
        type: DT_STRING
        type: DT_STRING
      }
    }
  }
  attr {
    key: "timeout_ms"
    value {
      i: -1
    }
  }
}
node {
  name: "bucket_by_sequence_length/bucket/Const_7"
  op: "Const"
  device: "/device:CPU:0"
  attr {
    key: "_output_shapes"
    value {
      list {
        shape {
        }
      }
    }
  }
  attr {
    key: "dtype"
    value {
      type: DT_INT32
    }
  }
  attr {
    key: "value"
    value {
      tensor {
        dtype: DT_INT32
        tensor_shape {
        }
        int_val: 6
      }
    }
  }
}
node {
  name: "bucket_by_sequence_length/bucket/read_bucket_6/n"
  op: "Const"
  device: "/device:CPU:0"
  attr {
    key: "_output_shapes"
    value {
      list {
        shape {
        }
      }
    }
  }
  attr {
    key: "dtype"
    value {
      type: DT_INT32
    }
  }
  attr {
    key: "value"
    value {
      tensor {
        dtype: DT_INT32
        tensor_shape {
        }
        int_val: 32
      }
    }
  }
}
node {
  name: "bucket_by_sequence_length/bucket/read_bucket_6"
  op: "QueueDequeueManyV2"
  input: "bucket_by_sequence_length/bucket/bucket_queue_6"
  input: "bucket_by_sequence_length/bucket/read_bucket_6/n"
  device: "/device:CPU:0"
  attr {
    key: "_output_shapes"
    value {
      list {
        shape {
          dim {
            size: 32
          }
          dim {
            size: 1
          }
        }
        shape {
          dim {
            size: 32
          }
          dim {
            size: -1
          }
          dim {
            size: -1
          }
          dim {
            size: 1
          }
        }
        shape {
          dim {
            size: 32
          }
          dim {
            size: 3
          }
        }
        shape {
          dim {
            size: 32
          }
          dim {
            size: 1
          }
        }
        shape {
          dim {
            size: 32
          }
        }
        shape {
          dim {
            size: 32
          }
        }
      }
    }
  }
  attr {
    key: "component_types"
    value {
      list {
        type: DT_INT32
        type: DT_FLOAT
        type: DT_STRING
        type: DT_INT64
        type: DT_STRING
…
      type: DT_FLOAT
    }
  }
  attr {
    key: "_class"
    value {
      list {
        s: "loc:@convnet/conv8/batch_norm/beta"
      }
    }
  }
  attr {
    key: "_output_shapes"
    value {
      list {
        shape {
          dim {
            size: 512
          }
        }
      }
    }
  }
  attr {
    key: "use_locking"
    value {
      b: true
    }
  }
  attr {
    key: "validate_shape"
    value {
      b: true
    }
  }
}
node {
  name: "save/Assign_42"
  op: "Assign"
  input: "OptimizeLoss/convnet/conv8/batch_norm/gamma/Adam"
  input: "save/RestoreV2:42"
  device: "/device:CPU:1"
  attr {
    key: "T"
    value {
      type: DT_FLOAT
    }
  }
  attr {
    key: "_class"
    value {
      list {
        s: "loc:@convnet/conv8/batch_norm/gamma"
      }
    }
  }
  attr {
    key: "_output_shapes"
    value {
      list {
        shape {
          dim {
            size: 512
          }
        }
      }
    }
  }
  attr {
    key: "use_locking"
    value {
      b: true
    }
  }
  attr {
    key: "validate_shape"
    value {
      b: true
    }
  }
}
node {
  name: "save/Assign_43"
  op: "Assign"
  input: "OptimizeLoss/convnet/conv8/batch_norm/gamma/Adam_1"
  input: "save/RestoreV2:43"
  device: "/device:CPU:1"
  attr {
    key: "T"
    value {
      type: DT_FLOAT
    }
  }
  attr {
    key: "_class"
    value {
      list {
        s: "loc:@convnet/conv8/batch_norm/gamma"
      }
    }
  }
  attr {
    key: "_output_shapes"
    value {
      list {
        shape {
          dim {
            size: 512
          }
        }
      }
    }
  }
  attr {
    key: "use_locking"
    value {
      b: true
    }
  }
  attr {
    key: "validate_shape"
    value {
      b: true
    }
  }
}
node {
  name: "save/Assign_44"
  op: "Assign"
  input: "OptimizeLoss/convnet/conv8/bias/Adam"
  input: "save/RestoreV2:44"
  device: "/device:CPU:1"
  attr {
    key: "T"
    value {
      type: DT_FLOAT
    }
  }
  attr {
    key: "_class"
    value {
      list {
        s: "loc:@convnet/conv8/bias"
      }
    }
  }
  attr {
    key: "_output_shapes"
    value {
      list {
        shape {
          dim {
            size: 512
          }
        }
      }
    }
  }
  attr {
    key: "use_locking"
    value {
      b: true
    }
  }
  attr {
    key: "validate_shape"
    value {
      b: true
    }
  }
}
node {
  name: "save/Assign_45"
  op: "Assign"
  input: "OptimizeLoss/convnet/conv8/bias/Adam_1"
  input: "save/RestoreV2:45"
  device: "/device:CPU:1"
  attr {
    key: "T"
    value {
      type: DT_FLOAT
    }
  }
  attr {
    key: "_class"
    value {
      list {
        s: "loc:@convnet/conv8/bias"
      }
    }
  }
  attr {
    key: "_output_shapes"
    value {
      list {
        shape {
          dim {
            size: 512
          }
        }
      }
    }
  }
  attr {
    key: "use_locking"
    value {
      b: true
    }
  }
  attr {
    key: "validate_shape"
    value {
      b: true
    }
  }
}
node {
  name: "save/Assign_46"
  op: "Assign"
  input: "OptimizeLoss/convnet/conv8/kernel/Adam"
  input: "save/RestoreV2:46"
  device: "/device:CPU:1"
  attr {
    key: "T"
    value {
      type: DT_FLOAT
    }
  }
  attr {
    key: "_class"
    value {
      list {
        s: "loc:@convnet/conv8/kernel"
      }
    }
  }
  attr {
    key: "_output_shapes"
    value {
      list {
        shape {
          dim {
            size: 3
          }
          dim {
            size: 3
          }
          dim {
            size: 512
          }
          dim {
            size: 512
          }
        }
      }
    }
  }
  attr {
    key: "use_locking"
    value {
      b: true
    }
  }
  attr {
    key: "validate_shape"
    value {
      b: true
    }
  }
}
node {
  name: "save/Assign_47"
  op: "Assign"
  input: "OptimizeLoss/convnet/conv8/kernel/Adam_1"
  input: "save/RestoreV2:47"
  device: "/device:CPU:1"
  attr {
    key: "T"
    value {
      type: DT_FLOAT
    }
  }
  attr {
    key: "_class"
    value {
      list {
        s: "loc:@convnet/conv8/kernel"
      }
    }
  }
  attr {
    key: "_output_shapes"
    value {
      list {
        shape {
          dim {
            size: 3
          }
          dim {
            size: 3
          }
          dim {
            size: 512
          }
          dim {
            size: 512
          }
        }
      }
    }
  }
  attr {
    key: "use_locking"
    value {
      b: true
    }
  }
  attr {
    key: "validate_shape"
    value {
      b: true
    }
  }
}
node {
  name: "save/Assign_48"
  op: "Assign"
  input: "OptimizeLoss/rnn/bdrnn1/bw/lstm_cell/bias/Adam"
  input: "save/RestoreV2:48"
  device: "/device:CPU:1"
  attr {
    key: "T"
    value {
      type: DT_FLOAT
    }
  }
  attr {
    key: "_class"
    value {
      list {
        s: "loc:@rnn/bdrnn1/bw/lstm_cell/bias"
      }
    }
  }
  attr {
    key: "_output_shapes"
    value {
      list {
        shape {
          dim {
            size: 2048
          }
        }
      }
    }
  }
  attr {
    key: "use_locking"
    value {
      b: true
    }
  }
  attr {
    key: "validate_shape"
    value {
      b: true
    }
  }
}
node {
  name: "save/Assign_49"
  op: "Assign"
  input: "OptimizeLoss/rnn/bdrnn1/bw/lstm_cell/bias/Adam_1"
  input: "save/RestoreV2:49"
  device: "/device:CPU:1"
  attr {
    key: "T"
    value {
      type: DT_FLOAT
    }
  }
  attr {
    key: "_class"
    value {
      list {
        s: "loc:@rnn/bdrnn1/bw/lstm_cell/bias"
      }
    }
  }
  attr {
    key: "_output_shapes"
    value {
      list {
        shape {
          dim {
            size: 2048
          }
        }
      }
    }
  }
  attr {
    key: "use_locking"
    value {
      b: true
    }
  }
  attr {
    key: "validate_shape"
    value {
      b: true
    }
  }
}
node {
  name: "save/Assign_50"
  op: "Assign"
  input: "OptimizeLoss/rnn/bdrnn1/bw/lstm_cell/kernel/Adam"
  input: "save/RestoreV2:50"
  device: "/device:CPU:1"
  attr {
    key: "T"
    value {
      type: DT_FLOAT
    }
  }
  attr {
    key: "_class"
    value {
      list {
        s: "loc:@rnn/bdrnn1/bw/lstm_cell/kernel"
      }
    }
  }
  attr {
    key: "_output_shapes"
    value {
      list {
        shape {
          dim {
            size: 1024
          }
          dim {
            size: 2048
          }
        }
      }
    }
  }
  attr {
    key: "use_locking"
    value {
      b: true
    }
  }
  attr {
    key: "validate_shape"
    value {
      b: true
    }
  }
}
node {
  name: "save/Assign_51"
  op: "Assign"
  input: "OptimizeLoss/rnn/bdrnn1/bw/lstm_cell/kernel/Adam_1"
  input: "save/RestoreV2:51"
  device: "/device:CPU:1"
  attr {
    key: "T"
    value {
      type: DT_FLOAT
    }
  }
  attr {
    key: "_class"
    value {
      list {
        s: "loc:@rnn/bdrnn1/bw/lstm_cell/kernel"
      }
    }
  }
  attr {
    key: "_output_shapes"
    value {
      list {
        shape {
          dim {
            size: 1024
          }
          dim {
            size: 2048
          }
        }
      }
    }
  }
  attr {
    key: "use_locking"
    value {
      b: true
    }
  }
  attr {
    key: "validate_shape"
    value {
      b: true
    }
  }
}
node {
  name: "save/Assign_52"
  op: "Assign"
  input: "OptimizeLoss/rnn/bdrnn1/fw/lstm_cell/bias/Adam"
  input: "save/RestoreV2:52"
  device: "/device:CPU:1"
  attr {
    key: "T"
    value {
      type: DT_FLOAT
    }
  }
  attr {
    key: "_class"
    value {
      list {
        s: "loc:@rnn/bdrnn1/fw/lstm_cell/bias"
      }
    }
  }
  attr {
    key: "_output_shapes"
    value {
      list {
        shape {
          dim {
            size: 2048
          }
        }
      }
    }
  }
  attr {
    key: "use_locking"
    value {
      b: true
    }
  }
  attr {
    key: "validate_shape"
    value {
      b: true
    }
  }
}
node {
  name: "save/Assign_53"
  op: "Assign"
  input: "OptimizeLoss/rnn/bdrnn1/fw/lstm_cell/bias/Adam_1"
  input: "save/RestoreV2:53"
  device: "/device:CPU:1"
  attr {
    key: "T"
    value {
      type: DT_FLOAT
    }
  }
  attr {
    key: "_class"
    value {
      list {
        s: "loc:@rnn/bdrnn1/fw/lstm_cell/bias"
      }
    }
  }
  attr {
    key: "_output_shapes"
    value {
      list {
        shape {
          dim {
            size: 2048
          }
        }
      }
    }
  }
  attr {
    key: "use_locking"
    value {
      b: true
    }
  }
  attr {
    key: "validate_shape"
    value {
      b: true
    }
  }
}
node {
  name: "save/Assign_54"
  op: "Assign"
  input: "OptimizeLoss/rnn/bdrnn1/fw/lstm_cell/kernel/Adam"
  input: "save/RestoreV2:54"
  device: "/device:CPU:1"
  attr {
    key: "T"
    value {
      type: DT_FLOAT
    }
  }
  attr {
    key: "_class"
    value {
      list {
        s: "loc:@rnn/bdrnn1/fw/lstm_cell/kernel"
      }
    }
  }
  attr {
    key: "_output_shapes"
    value {
      list {
        shape {
          dim {
            size: 1024
          }
          dim {
            size: 2048
          }
        }
      }
    }
  }
  attr {
    key: "use_locking"
    value {
      b: true
    }
  }
  attr {
    key: "validate_shape"
    value {
      b: true
    }
  }
}
node {
  name: "save/Assign_55"
  op: "Assign"
  input: "OptimizeLoss/rnn/bdrnn1/fw/lstm_cell/kernel/Adam_1"
  input: "save/RestoreV2:55"
  device: "/device:CPU:1"
  attr {
    key: "T"
    value {
      type: DT_FLOAT
    }
  }
  attr {
    key: "_class"
    value {
      list {
        s: "loc:@rnn/bdrnn1/fw/lstm_cell/kernel"
      }
    }
  }
  attr {
    key: "_output_shapes"
    value {
      list {
        shape {
          dim {
            size: 1024
          }
          dim {
            size: 2048
          }
        }
      }
    }
  }
  attr {
    key: "use_locking"
    value {
      b: true
    }
  }
  attr {
    key: "validate_shape"
    value {
      b: true
    }
  }
}
node {
  name: "save/Assign_56"
  op: "Assign"
  input: "OptimizeLoss/rnn/bdrnn2/bw/lstm_cell/bias/Adam"
  input: "save/RestoreV2:56"
  device: "/device:CPU:1"
  attr {
    key: "T"
    value {
      type: DT_FLOAT
    }
  }
  attr {
    key: "_class"
    value {
      list {
        s: "loc:@rnn/bdrnn2/bw/lstm_cell/bias"
      }
    }
  }
  attr {
    key: "_output_shapes"
    value {
      list {
        shape {
          dim {
            size: 2048
          }
        }
      }
    }
  }
  attr {
    key: "use_locking"
    value {
      b: true
    }
  }
  attr {
    key: "validate_shape"
    value {
      b: true
    }
  }
}
node {
  name: "save/Assign_57"
  op: "Assign"
  input: "OptimizeLoss/rnn/bdrnn2/bw/lstm_cell/bias/Adam_1"
  input: "save/RestoreV2:57"
  device: "/device:CPU:1"
  attr {
    key: "T"
    value {
      type: DT_FLOAT
    }
  }
  attr {
    key: "_class"
    value {
      list {
        s: "loc:@rnn/bdrnn2/bw/lstm_cell/bias"
      }
    }
  }
  attr {
    key: "_output_shapes"
    value {
      list {
        shape {
          dim {
            size: 2048
          }
        }
      }
    }
  }
  attr {
    key: "use_locking"
    value {
      b: true
    }
  }
  attr {
    key: "validate_shape"
    value {
      b: true
    }
  }
}
node {
  name: "save/Assign_58"
  op: "Assign"
  input: "OptimizeLoss/rnn/bdrnn2/bw/lstm_cell/kernel/Adam"
  input: "save/RestoreV2:58"
  device: "/device:CPU:1"
  attr {
    key: "T"
    value {
      type: DT_FLOAT
    }
  }
  attr {
    key: "_class"
    value {
      list {
        s: "loc:@rnn/bdrnn2/bw/lstm_cell/kernel"
      }
    }
  }
  attr {
    key: "_output_shapes"
    value {
      list {
        shape {
          dim {
            size: 1536
          }
          dim {
            size: 2048
          }
        }
      }
    }
  }
  attr {
    key: "use_locking"
    value {
      b: true
    }
  }
  attr {
    key: "validate_shape"
    value {
      b: true
    }
  }
}
node {
  name: "save/Assign_59"
  op: "Assign"
  input: "OptimizeLoss/rnn/bdrnn2/bw/lstm_cell/kernel/Adam_1"
  input: "save/RestoreV2:59"
  device: "/device:CPU:1"
  attr {
    key: "T"
    value {
      type: DT_FLOAT
    }
  }
  attr {
    key: "_class"
    value {
      list {
        s: "loc:@rnn/bdrnn2/bw/lstm_cell/kernel"
      }
    }
  }
  attr {
    key: "_output_shapes"
    value {
      list {
        shape {
          dim {
            size: 1536
          }
          dim {
            size: 2048
          }
        }
      }
    }
  }
  attr {
    key: "use_locking"
    value {
      b: true
    }
  }
  attr {
    key: "validate_shape"
    value {
      b: true
    }
  }
}
node {
  name: "save/Assign_60"
  op: "Assign"
  input: "OptimizeLoss/rnn/bdrnn2/fw/lstm_cell/bias/Adam"
  input: "save/RestoreV2:60"
  device: "/device:CPU:1"
  attr {
    key: "T"
    value {
      type: DT_FLOAT
    }
  }
  attr {
    key: "_class"
    value {
      list {
        s: "loc:@rnn/bdrnn2/fw/lstm_cell/bias"
      }
    }
  }
  attr {
    key: "_output_shapes"
    value {
      list {
        shape {
          dim {
            size: 2048
          }
        }
      }
    }
  }
  attr {
    key: "use_locking"
    value {
      b: true
    }
  }
  attr {
    key: "validate_shape"
    value {
      b: true
    }
  }
}
node {
  name: "save/Assign_61"
  op: "Assign"
  input: "OptimizeLoss/rnn/bdrnn2/fw/lstm_cell/bias/Adam_1"
  input: "save/RestoreV2:61"
  device: "/device:CPU:1"
  attr {
    key: "T"
    value {
      type: DT_FLOAT
    }
  }
  attr {
    key: "_class"
    value {
      list {
        s: "loc:@rnn/bdrnn2/fw/lstm_cell/bias"
      }
    }
  }
  attr {
    key: "_output_shapes"
    value {
      list {
        shape {
          dim {
            size: 2048
          }
        }
      }
    }
  }
  attr {
    key: "use_locking"
    value {
      b: true
    }
  }
  attr {
    key: "validate_shape"
    value {
      b: true
    }
  }
}
node {
  name: "save/Assign_62"
  op: "Assign"
  input: "OptimizeLoss/rnn/bdrnn2/fw/lstm_cell/kernel/Adam"
  input: "save/RestoreV2:62"
  device: "/device:CPU:1"
  attr {
    key: "T"
    value {
      type: DT_FLOAT
    }
  }
  attr {
    key: "_class"
    value {
      list {
        s: "loc:@rnn/bdrnn2/fw/lstm_cell/kernel"
      }
    }
  }
  attr {
    key: "_output_shapes"
    value {
      list {
        shape {
          dim {
            size: 1536
          }
          dim {
            size: 2048
          }
        }
      }
    }
  }
  attr {
    key: "use_locking"
    value {
      b: true
    }
  }
  attr {
    key: "validate_shape"
    value {
      b: true
    }
  }
}
node {
  name: "save/Assign_63"
  op: "Assign"
  input: "OptimizeLoss/rnn/bdrnn2/fw/lstm_cell/kernel/Adam_1"
  input: "save/RestoreV2:63"
  device: "/device:CPU:1"
  attr {
    key: "T"
    value {
      type: DT_FLOAT
    }
  }
  attr {
    key: "_class"
    value {
      list {
        s: "loc:@rnn/bdrnn2/fw/lstm_cell/kernel"
      }
    }
  }
  attr {
    key: "_output_shapes"
    value {
      list {
        shape {
          dim {
            size: 1536
          }
          dim {
            size: 2048
          }
        }
      }
    }
  }
  attr {
    key: "use_locking"
    value {
      b: true
    }
  }
  attr {
    key: "validate_shape"
    value {
      b: true
    }
  }
}
node {
  name: "save/Assign_64"
  op: "Assign"
  input: "OptimizeLoss/rnn/logits/bias/Adam"
  input: "save/RestoreV2:64"
  device: "/device:CPU:1"
  attr {
    key: "T"
    value {
      type: DT_FLOAT
    }
  }
  attr {
    key: "_class"
    value {
      list {
        s: "loc:@rnn/logits/bias"
      }
    }
  }
  attr {
    key: "_output_shapes"
    value {
      list {
        shape {
          dim {
            size: 5530
          }
        }
      }
    }
  }
  attr {
    key: "use_locking"
    value {
      b: true
    }
  }
  attr {
    key: "validate_shape"
    value {
      b: true
    }
  }
}
node {
  name: "save/Assign_65"
  op: "Assign"
  input: "OptimizeLoss/rnn/logits/bias/Adam_1"
  input: "save/RestoreV2:65"
  device: "/device:CPU:1"
  attr {
    key: "T"
    value {
      type: DT_FLOAT
    }
  }
  attr {
    key: "_class"
    value {
      list {
        s: "loc:@rnn/logits/bias"
      }
    }
  }
  attr {
    key: "_output_shapes"
    value {
      list {
        shape {
          dim {
            size: 5530
          }
        }
      }
    }
  }
  attr {
    key: "use_locking"
    value {
      b: true
    }
  }
  attr {
    key: "validate_shape"
    value {
      b: true
    }
  }
}
node {
  name: "save/Assign_66"
  op: "Assign"
  input: "OptimizeLoss/rnn/logits/kernel/Adam"
  input: "save/RestoreV2:66"
  device: "/device:CPU:1"
  attr {
    key: "T"
    value {
      type: DT_FLOAT
    }
  }
  attr {
    key: "_class"
    value {
      list {
        s: "loc:@rnn/logits/kernel"
      }
    }
  }
  attr {
    key: "_output_shapes"
    value {
      list {
        shape {
          dim {
            size: 1024
          }
          dim {
            size: 5530
          }
        }
      }
    }
  }
  attr {
    key: "use_locking"
    value {
      b: true
    }
  }
  attr {
    key: "validate_shape"
    value {
      b: true
    }
  }
}
node {
  name: "save/Assign_67"
  op: "Assign"
  input: "OptimizeLoss/rnn/logits/kernel/Adam_1"
  input: "save/RestoreV2:67"
  device: "/device:CPU:1"
  attr {
    key: "T"
    value {
      type: DT_FLOAT
    }
  }
  attr {
    key: "_class"
    value {
      list {
        s: "loc:@rnn/logits/kernel"
      }
    }
  }
  attr {
    key: "_output_shapes"
    value {
      list {
        shape {
          dim {
            size: 1024
          }
          dim {
            size: 5530
          }
        }
      }
    }
  }
  attr {
    key: "use_locking"
    value {
      b: true
    }
  }
  attr {
    key: "validate_shape"
    value {
      b: true
    }
  }
}
node {
  name: "save/Assign_68"
  op: "Assign"
  input: "convnet/conv1/bias"
  input: "save/RestoreV2:68"
  device: "/device:CPU:1"
  attr {
    key: "T"
    value {
      type: DT_FLOAT
    }
  }
  attr {
    key: "_class"
    value {
      list {
        s: "loc:@convnet/conv1/bias"
      }
    }
  }
  attr {
    key: "_output_shapes"
    value {
      list {
        shape {
          dim {
            size: 64
          }
        }
      }
    }
  }
  attr {
    key: "use_locking"
    value {
      b: true
    }
  }
  attr {
    key: "validate_shape"
    value {
      b: true
    }
  }
}
node {
  name: "save/Assign_69"
  op: "Assign"
  input: "convnet/conv1/kernel"
  input: "save/RestoreV2:69"
  device: "/device:CPU:1"
  attr {
    key: "T"
    value {
      type: DT_FLOAT
    }
  }
  attr {
    key: "_class"
    value {
      list {
        s: "loc:@convnet/conv1/kernel"
      }
    }
  }
  attr {
    key: "_output_shapes"
    value {
      list {
        shape {
          dim {
            size: 3
          }
          dim {
            size: 3
          }
          dim {
            size: 1
          }
          dim {
            size: 64
          }
        }
      }
    }
  }
  attr {
    key: "use_locking"
    value {
      b: true
    }
  }
  attr {
    key: "validate_shape"
    value {
      b: true
    }
  }
}
node {
  name: "save/Assign_70"
  op: "Assign"
  input: "convnet/conv2/batch_norm/beta"
  input: "save/RestoreV2:70"
  device: "/device:CPU:1"
  attr {
    key: "T"
    value {
      type: DT_FLOAT
    }
  }
  attr {
    key: "_class"
    value {
      list {
        s: "loc:@convnet/conv2/batch_norm/beta"
      }
    }
  }
  attr {
    key: "_output_shapes"
    value {
      list {
        shape {
          dim {
            size: 64
          }
        }
      }
    }
  }
  attr {
    key: "use_locking"
    value {
      b: true
    }
  }
  attr {
    key: "validate_shape"
    value {
      b: true
    }
  }
}
node {
  name: "save/Assign_71"
  op: "Assign"
  input: "convnet/conv2/batch_norm/gamma"
  input: "save/RestoreV2:71"
  device: "/device:CPU:1"
  attr {
    key: "T"
    value {
      type: DT_FLOAT
    }
  }
  attr {
    key: "_class"
    value {
      list {
        s: "loc:@convnet/conv2/batch_norm/gamma"
      }
    }
  }
  attr {
    key: "_output_shapes"
    value {
      list {
        shape {
          dim {
            size: 64
          }
        }
      }
    }
  }
  attr {
    key: "use_locking"
    value {
      b: true
    }
  }
  attr {
    key: "validate_shape"
    value {
      b: true
    }
  }
}
node {
  name: "save/Assign_72"
  op: "Assign"
  input: "convnet/conv2/batch_norm/moving_mean"
  input: "save/RestoreV2:72"
  device: "/device:CPU:1"
  attr {
    key: "T"
    value {
      type: DT_FLOAT
    }
  }
  attr {
    key: "_class"
    value {
      list {
        s: "loc:@convnet/conv2/batch_norm/moving_mean"
      }
    }
  }
  attr {
    key: "_output_shapes"
    value {
      list {
        shape {
          dim {
            size: 64
          }
        }
      }
    }
  }
  attr {
    key: "use_locking"
    value {
      b: true
    }
  }
  attr {
    key: "validate_shape"
    value {
      b: true
    }
  }
}
node {
  name: "save/Assign_73"
  op: "Assign"
  input: "convnet/conv2/batch_norm/moving_variance"
  input: "save/RestoreV2:73"
  device: "/device:CPU:1"
  attr {
    key: "T"
    value {
      type: DT_FLOAT
    }
  }
  attr {
    key: "_class"
    value {
      list {
        s: "loc:@convnet/conv2/batch_norm/moving_variance"
      }
    }
  }
  attr {
    key: "_output_shapes"
    value {
      list {
        shape {
          dim {
            size: 64
          }
        }
      }
    }
  }
  attr {
    key: "use_locking"
    value {
      b: true
    }
  }
  attr {
    key: "validate_shape"
    value {
      b: true
    }
  }
}
node {
  name: "save/Assign_74"
  op: "Assign"
  input: "convnet/conv2/bias"
  input: "save/RestoreV2:74"
  device: "/device:CPU:1"
  attr {
    key: "T"
    value {
      type: DT_FLOAT
    }
  }
  attr {
    key: "_class"
    value {
      list {
        s: "loc:@convnet/conv2/bias"
      }
    }
  }
  attr {
    key: "_output_shapes"
    value {
      list {
        shape {
          dim {
            size: 64
          }
        }
      }
    }
  }
  attr {
    key: "use_locking"
    value {
      b: true
    }
  }
  attr {
    key: "validate_shape"
    value {
      b: true
    }
  }
}
node {
  name: "save/Assign_75"
  op: "Assign"
  input: "convnet/conv2/kernel"
  input: "save/RestoreV2:75"
  device: "/device:CPU:1"
  attr {
    key: "T"
    value {
      type: DT_FLOAT
    }
  }
  attr {
    key: "_class"
    value {
      list {
        s: "loc:@convnet/conv2/kernel"
      }
    }
  }
  attr {
    key: "_output_shapes"
    value {
      list {
        shape {
          dim {
            size: 3
          }
          dim {
            size: 3
          }
          dim {
            size: 64
          }
          dim {
            size: 64
          }
        }
      }
    }
  }
  attr {
    key: "use_locking"
    value {
      b: true
    }
  }
  attr {
    key: "validate_shape"
    value {
      b: true
    }
  }
}
node {
  name: "save/Assign_76"
  op: "Assign"
  input: "convnet/conv3/bias"
  input: "save/RestoreV2:76"
  device: "/device:CPU:1"
  attr {
    key: "T"
    value {
      type: DT_FLOAT
    }
  }
  attr {
    key: "_class"
    value {
      list {
        s: "loc:@convnet/conv3/bias"
      }
    }
  }
  attr {
    key: "_output_shapes"
    value {
      list {
        shape {
          dim {
            size: 128
          }
        }
      }
    }
  }
  attr {
    key: "use_locking"
    value {
      b: true
    }
  }
  attr {
    key: "validate_shape"
    value {
      b: true
    }
  }
}
node {
  name: "save/Assign_77"
  op: "Assign"
  input: "convnet/conv3/kernel"
  input: "save/RestoreV2:77"
  device: "/device:CPU:1"
  attr {
    key: "T"
    value {
      type: DT_FLOAT
    }
  }
  attr {
    key: "_class"
    value {
      list {
        s: "loc:@convnet/conv3/kernel"
      }
    }
  }
  attr {
    key: "_output_shapes"
    value {
      list {
        shape {
          dim {
            size: 3
          }
          dim {
            size: 3
          }
          dim {
            size: 64
          }
          dim {
            size: 128
          }
        }
      }
    }
  }
  attr {
    key: "use_locking"
    value {
      b: true
    }
  }
  attr {
    key: "validate_shape"
    value {
      b: true
    }
  }
}
node {
  name: "save/Assign_78"
  op: "Assign"
  input: "convnet/conv4/batch_norm/beta"
  input: "save/RestoreV2:78"
  device: "/device:CPU:1"
  attr {
    key: "T"
    value {
      type: DT_FLOAT
    }
  }
  attr {
    key: "_class"
    value {
      list {
        s: "loc:@convnet/conv4/batch_norm/beta"
      }
    }
  }
  attr {
    key: "_output_shapes"
    value {
      list {
        shape {
          dim {
            size: 128
          }
        }
      }
    }
  }
  attr {
    key: "use_locking"
    value {
      b: true
    }
  }
  attr {
    key: "validate_shape"
    value {
      b: true
    }
  }
}
node {
  name: "save/Assign_79"
  op: "Assign"
  input: "convnet/conv4/batch_norm/gamma"
  input: "save/RestoreV2:79"
  device: "/device:CPU:1"
  attr {
    key: "T"
    value {
      type: DT_FLOAT
    }
  }
  attr {
    key: "_class"
    value {
      list {
        s: "loc:@convnet/conv4/batch_norm/gamma"
      }
    }
  }
  attr {
    key: "_output_shapes"
    value {
      list {
        shape {
          dim {
            size: 128
          }
        }
      }
    }
  }
  attr {
    key: "use_locking"
    value {
      b: true
    }
  }
  attr {
    key: "validate_shape"
    value {
      b: true
    }
  }
}
node {
  name: "save/Assign_80"
  op: "Assign"
  input: "convnet/conv4/batch_norm/moving_mean"
  input: "save/RestoreV2:80"
  device: "/device:CPU:1"
  attr {
    key: "T"
    value {
      type: DT_FLOAT
    }
  }
  attr {
    key: "_class"
    value {
      list {
        s: "loc:@convnet/conv4/batch_norm/moving_mean"
      }
    }
  }
  attr {
    key: "_output_shapes"
    value {
      list {
        shape {
          dim {
            size: 128
          }
        }
      }
    }
  }
  attr {
    key: "use_locking"
    value {
      b: true
    }
  }
  attr {
    key: "validate_shape"
    value {
      b: true
    }
  }
}
node {
  name: "save/Assign_81"
  op: "Assign"
  input: "convnet/conv4/batch_norm/moving_variance"
  input: "save/RestoreV2:81"
  device: "/device:CPU:1"
  attr {
    key: "T"
    value {
      type: DT_FLOAT
    }
  }
  attr {
    key: "_class"
    value {
      list {
        s: "loc:@convnet/conv4/batch_norm/moving_variance"
      }
    }
  }
  attr {
    key: "_output_shapes"
    value {
      list {
        shape {
          dim {
            size: 128
          }
        }
      }
    }
  }
  attr {
    key: "use_locking"
    value {
      b: true
    }
  }
  attr {
    key: "validate_shape"
    value {
      b: true
    }
  }
}
node {
  name: "save/Assign_82"
  op: "Assign"
  input: "convnet/conv4/bias"
  input: "save/RestoreV2:82"
  device: "/device:CPU:1"
  attr {
    key: "T"
    value {
      type: DT_FLOAT
    }
  }
  attr {
    key: "_class"
    value {
      list {
        s: "loc:@convnet/conv4/bias"
      }
    }
  }
  attr {
    key: "_output_shapes"
    value {
      list {
        shape {
          dim {
            size: 128
          }
        }
      }
    }
  }
  attr {
    key: "use_locking"
    value {
      b: true
    }
  }
  attr {
    key: "validate_shape"
    value {
      b: true
    }
  }
}
node {
  name: "save/Assign_83"
  op: "Assign"
  input: "convnet/conv4/kernel"
  input: "save/RestoreV2:83"
  device: "/device:CPU:1"
  attr {
    key: "T"
    value {
      type: DT_FLOAT
    }
  }
  attr {
    key: "_class"
    value {
      list {
        s: "loc:@convnet/conv4/kernel"
      }
    }
  }
  attr {
    key: "_output_shapes"
    value {
      list {
        shape {
          dim {
            size: 3
          }
          dim {
            size: 3
          }
          dim {
            size: 128
          }
          dim {
            size: 128
          }
        }
      }
    }
  }
  attr {
    key: "use_locking"
    value {
      b: true
    }
  }
  attr {
    key: "validate_shape"
    value {
      b: true
    }
  }
}
node {
  name: "save/Assign_84"
  op: "Assign"
  input: "convnet/conv5/bias"
  input: "save/RestoreV2:84"
  device: "/device:CPU:1"
  attr {
    key: "T"
    value {
      type: DT_FLOAT
    }
  }
  attr {
    key: "_class"
    value {
      list {
        s: "loc:@convnet/conv5/bias"
      }
    }
  }
  attr {
    key: "_output_shapes"
    value {
      list {
        shape {
          dim {
            size: 256
          }
        }
      }
    }
  }
  attr {
    key: "use_locking"
    value {
      b: true
    }
  }
  attr {
    key: "validate_shape"
    value {
      b: true
    }
  }
}
node {
  name: "save/Assign_85"
  op: "Assign"
  input: "convnet/conv5/kernel"
  input: "save/RestoreV2:85"
  device: "/device:CPU:1"
  attr {
    key: "T"
    value {
      type: DT_FLOAT
    }
  }
  attr {
    key: "_class"
    value {
      list {
        s: "loc:@convnet/conv5/kernel"
      }
    }
  }
  attr {
    key: "_output_shapes"
    value {
      list {
        shape {
          dim {
            size: 3
          }
          dim {
            size: 3
          }
          dim {
            size: 128
          }
          dim {
            size: 256
          }
        }
      }
    }
  }
  attr {
    key: "use_locking"
    value {
      b: true
    }
  }
  attr {
    key: "validate_shape"
    value {
      b: true
    }
  }
}
node {
  name: "save/Assign_86"
  op: "Assign"
  input: "convnet/conv6/batch_norm/beta"
  input: "save/RestoreV2:86"
  device: "/device:CPU:1"
  attr {
    key: "T"
    value {
      type: DT_FLOAT
    }
  }
  attr {
    key: "_class"
    value {
      list {
        s: "loc:@convnet/conv6/batch_norm/beta"
      }
    }
  }
  attr {
    key: "_output_shapes"
    value {
      list {
        shape {
          dim {
            size: 256
          }
        }
      }
    }
  }
  attr {
    key: "use_locking"
    value {
      b: true
    }
  }
  attr {
    key: "validate_shape"
    value {
      b: true
    }
  }
}
node {
  name: "save/Assign_87"
  op: "Assign"
  input: "convnet/conv6/batch_norm/gamma"
  input: "save/RestoreV2:87"
  device: "/device:CPU:1"
  attr {
    key: "T"
    value {
      type: DT_FLOAT
    }
  }
  attr {
    key: "_class"
    value {
      list {
        s: "loc:@convnet/conv6/batch_norm/gamma"
      }
    }
  }
  attr {
    key: "_output_shapes"
    value {
      list {
        shape {
          dim {
            size: 256
          }
        }
      }
    }
  }
  attr {
    key: "use_locking"
    value {
      b: true
    }
  }
  attr {
    key: "validate_shape"
    value {
      b: true
    }
  }
}
node {
  name: "save/Assign_88"
  op: "Assign"
  input: "convnet/conv6/batch_norm/moving_mean"
  input: "save/RestoreV2:88"
  device: "/device:CPU:1"
  attr {
    key: "T"
    value {
      type: DT_FLOAT
    }
  }
  attr {
    key: "_class"
    value {
      list {
        s: "loc:@convnet/conv6/batch_norm/moving_mean"
      }
    }
  }
  attr {
    key: "_output_shapes"
    value {
      list {
        shape {
          dim {
            size: 256
          }
        }
      }
    }
  }
  attr {
    key: "use_locking"
    value {
      b: true
    }
  }
  attr {
    key: "validate_shape"
    value {
      b: true
    }
  }
}
node {
  name: "save/Assign_89"
  op: "Assign"
  input: "convnet/conv6/batch_norm/moving_variance"
  input: "save/RestoreV2:89"
  device: "/device:CPU:1"
  attr {
    key: "T"
    value {
      type: DT_FLOAT
    }
  }
  attr {
    key: "_class"
    value {
      list {
        s: "loc:@convnet/conv6/batch_norm/moving_variance"
      }
    }
  }
  attr {
    key: "_output_shapes"
    value {
      list {
        shape {
          dim {
            size: 256
          }
        }
      }
    }
  }
  attr {
    key: "use_locking"
    value {
      b: true
    }
  }
  attr {
    key: "validate_shape"
    value {
      b: true
    }
  }
}
node {
  name: "save/Assign_90"
  op: "Assign"
  input: "convnet/conv6/bias"
  input: "save/RestoreV2:90"
  device: "/device:CPU:1"
  attr {
    key: "T"
    value {
      type: DT_FLOAT
    }
  }
  attr {
    key: "_class"
    value {
      list {
        s: "loc:@convnet/conv6/bias"
      }
    }
  }
  attr {
    key: "_output_shapes"
    value {
      list {
        shape {
          dim {
            size: 256
          }
        }
      }
    }
  }
  attr {
    key: "use_locking"
    value {
      b: true
    }
  }
  attr {
    key: "validate_shape"
    value {
      b: true
    }
  }
}
node {
  name: "save/Assign_91"
  op: "Assign"
  input: "convnet/conv6/kernel"
  input: "save/RestoreV2:91"
  device: "/device:CPU:1"
  attr {
    key: "T"
    value {
      type: DT_FLOAT
    }
  }
  attr {
    key: "_class"
    value {
      list {
        s: "loc:@convnet/conv6/kernel"
      }
    }
  }
  attr {
    key: "_output_shapes"
    value {
      list {
        shape {
          dim {
            size: 3
          }
          dim {
            size: 3
          }
          dim {
            size: 256
          }
          dim {
            size: 256
          }
        }
      }
    }
  }
  attr {
    key: "use_locking"
    value {
      b: true
    }
  }
  attr {
    key: "validate_shape"
    value {
      b: true
    }
  }
}
node {
  name: "save/Assign_92"
  op: "Assign"
  input: "convnet/conv7/bias"
  input: "save/RestoreV2:92"
  device: "/device:CPU:1"
  attr {
    key: "T"
    value {
      type: DT_FLOAT
    }
  }
  attr {
    key: "_class"
    value {
      list {
        s: "loc:@convnet/conv7/bias"
      }
    }
  }
  attr {
    key: "_output_shapes"
    value {
      list {
        shape {
          dim {
            size: 512
          }
        }
      }
    }
  }
  attr {
    key: "use_locking"
    value {
      b: true
    }
  }
  attr {
    key: "validate_shape"
    value {
      b: true
    }
  }
}
node {
  name: "save/Assign_93"
  op: "Assign"
  input: "convnet/conv7/kernel"
  input: "save/RestoreV2:93"
  device: "/device:CPU:1"
  attr {
    key: "T"
    value {
      type: DT_FLOAT
    }
  }
  attr {
    key: "_class"
    value {
      list {
        s: "loc:@convnet/conv7/kernel"
      }
    }
  }
  attr {
    key: "_output_shapes"
    value {
      list {
        shape {
          dim {
            size: 3
          }
          dim {
            size: 3
          }
          dim {
            size: 256
          }
          dim {
            size: 512
          }
        }
      }
    }
  }
  attr {
    key: "use_locking"
    value {
      b: true
    }
  }
  attr {
    key: "validate_shape"
    value {
      b: true
    }
  }
}
node {
  name: "save/Assign_94"
  op: "Assign"
  input: "convnet/conv8/batch_norm/beta"
  input: "save/RestoreV2:94"
  device: "/device:CPU:1"
  attr {
    key: "T"
    value {
      type: DT_FLOAT
    }
  }
  attr {
    key: "_class"
    value {
      list {
        s: "loc:@convnet/conv8/batch_norm/beta"
      }
    }
  }
  attr {
    key: "_output_shapes"
    value {
      list {
        shape {
          dim {
            size: 512
          }
        }
      }
    }
  }
  attr {
    key: "use_locking"
    value {
      b: true
    }
  }
  attr {
    key: "validate_shape"
    value {
      b: true
    }
  }
}
node {
  name: "save/Assign_95"
  op: "Assign"
  input: "convnet/conv8/batch_norm/gamma"
  input: "save/RestoreV2:95"
  device: "/device:CPU:1"
  attr {
    key: "T"
    value {
      type: DT_FLOAT
    }
  }
  attr {
    key: "_class"
    value {
      list {
        s: "loc:@convnet/conv8/batch_norm/gamma"
      }
    }
  }
  attr {
    key: "_output_shapes"
    value {
      list {
        shape {
          dim {
            size: 512
          }
        }
      }
    }
  }
  attr {
    key: "use_locking"
    value {
      b: true
    }
  }
  attr {
    key: "validate_shape"
    value {
      b: true
    }
  }
}
node {
  name: "save/Assign_96"
  op: "Assign"
  input: "convnet/conv8/batch_norm/moving_mean"
  input: "save/RestoreV2:96"
  device: "/device:CPU:1"
  attr {
    key: "T"
    value {
      type: DT_FLOAT
    }
  }
  attr {
    key: "_class"
    value {
      list {
        s: "loc:@convnet/conv8/batch_norm/moving_mean"
      }
    }
  }
  attr {
    key: "_output_shapes"
    value {
      list {
        shape {
          dim {
            size: 512
          }
        }
      }
    }
  }
  attr {
    key: "use_locking"
    value {
      b: true
    }
  }
  attr {
    key: "validate_shape"
    value {
      b: true
    }
  }
}
node {
  name: "save/Assign_97"
  op: "Assign"
  input: "convnet/conv8/batch_norm/moving_variance"
  input: "save/RestoreV2:97"
  device: "/device:CPU:1"
  attr {
    key: "T"
    value {
      type: DT_FLOAT
    }
  }
  attr {
    key: "_class"
    value {
      list {
        s: "loc:@convnet/conv8/batch_norm/moving_variance"
      }
    }
  }
  attr {
    key: "_output_shapes"
    value {
      list {
        shape {
          dim {
            size: 512
          }
        }
      }
    }
  }
  attr {
    key: "use_locking"
    value {
      b: true
    }
  }
  attr {
    key: "validate_shape"
    value {
      b: true
    }
  }
}
node {
  name: "save/Assign_98"
  op: "Assign"
  input: "convnet/conv8/bias"
  input: "save/RestoreV2:98"
  device: "/device:CPU:1"
  attr {
    key: "T"
    value {
      type: DT_FLOAT
    }
  }
  attr {
    key: "_class"
    value {
      list {
        s: "loc:@convnet/conv8/bias"
      }
    }
  }
  attr {
    key: "_output_shapes"
    value {
      list {
        shape {
          dim {
            size: 512
          }
        }
      }
    }
  }
  attr {
    key: "use_locking"
    value {
      b: true
    }
  }
  attr {
    key: "validate_shape"
    value {
      b: true
    }
  }
}
node {
  name: "save/Assign_99"
  op: "Assign"
  input: "convnet/conv8/kernel"
  input: "save/RestoreV2:99"
  device: "/device:CPU:1"
  attr {
    key: "T"
    value {
      type: DT_FLOAT
    }
  }
  attr {
    key: "_class"
    value {
      list {
        s: "loc:@convnet/conv8/kernel"
      }
    }
  }
  attr {
    key: "_output_shapes"
    value {
      list {
        shape {
          dim {
            size: 3
          }
          dim {
            size: 3
          }
          dim {
            size: 512
          }
          dim {
            size: 512
          }
        }
      }
    }
  }
  attr {
    key: "use_locking"
    value {
      b: true
    }
  }
  attr {
    key: "validate_shape"
    value {
      b: true
    }
  }
}
node {
  name: "save/Assign_100"
  op: "Assign"
  input: "global_step"
  input: "save/RestoreV2:100"
  attr {
    key: "T"
    value {
      type: DT_INT64
    }
  }
  attr {
    key: "_class"
    value {
      list {
        s: "loc:@global_step"
      }
    }
  }
  attr {
    key: "_output_shapes"
    value {
      list {
        shape {
        }
      }
    }
  }
  attr {
    key: "use_locking"
    value {
      b: true
    }
  }
  attr {
    key: "validate_shape"
    value {
      b: true
    }
  }
}
node {
  name: "save/Assign_101"
  op: "Assign"
  input: "rnn/bdrnn1/bw/lstm_cell/bias"
  input: "save/RestoreV2:101"
  device: "/device:CPU:1"
  attr {
    key: "T"
    value {
      type: DT_FLOAT
    }
  }
  attr {
    key: "_class"
    value {
      list {
        s: "loc:@rnn/bdrnn1/bw/lstm_cell/bias"
      }
    }
  }
  attr {
    key: "_output_shapes"
    value {
      list {
        shape {
          dim {
            size: 2048
          }
        }
      }
    }
  }
  attr {
    key: "use_locking"
    value {
      b: true
    }
  }
  attr {
    key: "validate_shape"
    value {
      b: true
    }
  }
}
node {
  name: "save/Assign_102"
  op: "Assign"
  input: "rnn/bdrnn1/bw/lstm_cell/kernel"
  input: "save/RestoreV2:102"
  device: "/device:CPU:1"
  attr {
    key: "T"
    value {
      type: DT_FLOAT
    }
  }
  attr {
    key: "_class"
    value {
      list {
        s: "loc:@rnn/bdrnn1/bw/lstm_cell/kernel"
      }
    }
  }
  attr {
    key: "_output_shapes"
    value {
      list {
        shape {
          dim {
            size: 1024
          }
          dim {
            size: 2048
          }
        }
      }
    }
  }
  attr {
    key: "use_locking"
    value {
      b: true
    }
  }
  attr {
    key: "validate_shape"
    value {
      b: true
    }
  }
}
node {
  name: "save/Assign_103"
  op: "Assign"
  input: "rnn/bdrnn1/fw/lstm_cell/bias"
  input: "save/RestoreV2:103"
  device: "/device:CPU:1"
  attr {
    key: "T"
    value {
      type: DT_FLOAT
    }
  }
  attr {
    key: "_class"
    value {
      list {
        s: "loc:@rnn/bdrnn1/fw/lstm_cell/bias"
      }
    }
  }
  attr {
    key: "_output_shapes"
    value {
      list {
        shape {
          dim {
            size: 2048
          }
        }
      }
    }
  }
  attr {
    key: "use_locking"
    value {
      b: true
    }
  }
  attr {
    key: "validate_shape"
    value {
      b: true
    }
  }
}
node {
  name: "save/Assign_104"
  op: "Assign"
  input: "rnn/bdrnn1/fw/lstm_cell/kernel"
  input: "save/RestoreV2:104"
  device: "/device:CPU:1"
  attr {
    key: "T"
    value {
      type: DT_FLOAT
    }
  }
  attr {
    key: "_class"
    value {
      list {
        s: "loc:@rnn/bdrnn1/fw/lstm_cell/kernel"
      }
    }
  }
  attr {
    key: "_output_shapes"
    value {
      list {
        shape {
          dim {
            size: 1024
          }
          dim {
            size: 2048
          }
        }
      }
    }
  }
  attr {
    key: "use_locking"
    value {
      b: true
    }
  }
  attr {
    key: "validate_shape"
    value {
      b: true
    }
  }
}
node {
  name: "save/Assign_105"
  op: "Assign"
  input: "rnn/bdrnn2/bw/lstm_cell/bias"
  input: "save/RestoreV2:105"
  device: "/device:CPU:1"
  attr {
    key: "T"
    value {
      type: DT_FLOAT
    }
  }
  attr {
    key: "_class"
    value {
      list {
        s: "loc:@rnn/bdrnn2/bw/lstm_cell/bias"
      }
    }
  }
  attr {
    key: "_output_shapes"
    value {
      list {
        shape {
          dim {
            size: 2048
          }
        }
      }
    }
  }
  attr {
    key: "use_locking"
    value {
      b: true
    }
  }
  attr {
    key: "validate_shape"
    value {
      b: true
    }
  }
}
node {
  name: "save/Assign_106"
  op: "Assign"
  input: "rnn/bdrnn2/bw/lstm_cell/kernel"
  input: "save/RestoreV2:106"
  device: "/device:CPU:1"
  attr {
    key: "T"
    value {
      type: DT_FLOAT
    }
  }
  attr {
    key: "_class"
    value {
      list {
        s: "loc:@rnn/bdrnn2/bw/lstm_cell/kernel"
      }
    }
  }
  attr {
    key: "_output_shapes"
    value {
      list {
        shape {
          dim {
            size: 1536
          }
          dim {
            size: 2048
          }
        }
      }
    }
  }
  attr {
    key: "use_locking"
    value {
      b: true
    }
  }
  attr {
    key: "validate_shape"
    value {
      b: true
    }
  }
}
node {
  name: "save/Assign_107"
  op: "Assign"
  input: "rnn/bdrnn2/fw/lstm_cell/bias"
  input: "save/RestoreV2:107"
  device: "/device:CPU:1"
  attr {
    key: "T"
    value {
      type: DT_FLOAT
    }
  }
  attr {
    key: "_class"
    value {
      list {
        s: "loc:@rnn/bdrnn2/fw/lstm_cell/bias"
      }
    }
  }
  attr {
    key: "_output_shapes"
    value {
      list {
        shape {
          dim {
            size: 2048
          }
        }
      }
    }
  }
  attr {
    key: "use_locking"
    value {
      b: true
    }
  }
  attr {
    key: "validate_shape"
    value {
      b: true
    }
  }
}
node {
  name: "save/Assign_108"
  op: "Assign"
  input: "rnn/bdrnn2/fw/lstm_cell/kernel"
  input: "save/RestoreV2:108"
  device: "/device:CPU:1"
  attr {
    key: "T"
    value {
      type: DT_FLOAT
    }
  }
  attr {
    key: "_class"
    value {
      list {
        s: "loc:@rnn/bdrnn2/fw/lstm_cell/kernel"
      }
    }
  }
  attr {
    key: "_output_shapes"
    value {
      list {
        shape {
          dim {
            size: 1536
          }
          dim {
            size: 2048
          }
        }
      }
    }
  }
  attr {
    key: "use_locking"
    value {
      b: true
    }
  }
  attr {
    key: "validate_shape"
    value {
      b: true
    }
  }
}
node {
  name: "save/Assign_109"
  op: "Assign"
  input: "rnn/logits/bias"
  input: "save/RestoreV2:109"
  device: "/device:CPU:1"
  attr {
    key: "T"
    value {
      type: DT_FLOAT
    }
  }
  attr {
    key: "_class"
    value {
      list {
        s: "loc:@rnn/logits/bias"
      }
    }
  }
  attr {
    key: "_output_shapes"
    value {
      list {
        shape {
          dim {
            size: 5530
          }
        }
      }
    }
  }
  attr {
    key: "use_locking"
    value {
      b: true
    }
  }
  attr {
    key: "validate_shape"
    value {
      b: true
    }
  }
}
node {
  name: "save/Assign_110"
  op: "Assign"
  input: "rnn/logits/kernel"
  input: "save/RestoreV2:110"
  device: "/device:CPU:1"
  attr {
    key: "T"
    value {
      type: DT_FLOAT
    }
  }
  attr {
    key: "_class"
    value {
      list {
        s: "loc:@rnn/logits/kernel"
      }
    }
  }
  attr {
    key: "_output_shapes"
    value {
      list {
        shape {
          dim {
            size: 1024
          }
          dim {
            size: 5530
          }
        }
      }
    }
  }
  attr {
    key: "use_locking"
    value {
      b: true
    }
  }
  attr {
    key: "validate_shape"
    value {
      b: true
    }
  }
}
node {
  name: "save/Assign_111"
  op: "Assign"
  input: "train/OptimizeLoss/beta1_power"
  input: "save/RestoreV2:111"
  device: "/device:CPU:1"
  attr {
    key: "T"
    value {
      type: DT_FLOAT
    }
  }
  attr {
    key: "_class"
    value {
      list {
        s: "loc:@convnet/conv1/bias"
      }
    }
  }
  attr {
    key: "_output_shapes"
    value {
      list {
        shape {
        }
      }
    }
  }
  attr {
    key: "use_locking"
    value {
      b: true
    }
  }
  attr {
    key: "validate_shape"
    value {
      b: true
    }
  }
}
node {
  name: "save/Assign_112"
  op: "Assign"
  input: "train/OptimizeLoss/beta2_power"
  input: "save/RestoreV2:112"
  device: "/device:CPU:1"
  attr {
    key: "T"
    value {
      type: DT_FLOAT
    }
  }
  attr {
    key: "_class"
    value {
      list {
        s: "loc:@convnet/conv1/bias"
      }
    }
  }
  attr {
    key: "_output_shapes"
    value {
      list {
        shape {
        }
      }
    }
  }
  attr {
    key: "use_locking"
    value {
      b: true
    }
  }
  attr {
    key: "validate_shape"
    value {
      b: true
    }
  }
}
node {
  name: "save/restore_all/NoOp"
  op: "NoOp"
  input: "^save/Assign_100"
}
node {
  name: "save/restore_all/NoOp_1"
  op: "NoOp"
  input: "^save/Assign"
  input: "^save/Assign_1"
  input: "^save/Assign_10"
  input: "^save/Assign_101"
  input: "^save/Assign_102"
  input: "^save/Assign_103"
  input: "^save/Assign_104"
  input: "^save/Assign_105"
  input: "^save/Assign_106"
  input: "^save/Assign_107"
  input: "^save/Assign_108"
  input: "^save/Assign_109"
  input: "^save/Assign_11"
  input: "^save/Assign_110"
  input: "^save/Assign_111"
  input: "^save/Assign_112"
  input: "^save/Assign_12"
  input: "^save/Assign_13"
  input: "^save/Assign_14"
  input: "^save/Assign_15"
  input: "^save/Assign_16"
  input: "^save/Assign_17"
  input: "^save/Assign_18"
  input: "^save/Assign_19"
  input: "^save/Assign_2"
  input: "^save/Assign_20"
  input: "^save/Assign_21"
  input: "^save/Assign_22"
  input: "^save/Assign_23"
  input: "^save/Assign_24"
  input: "^save/Assign_25"
  input: "^save/Assign_26"
  input: "^save/Assign_27"
  input: "^save/Assign_28"
  input: "^save/Assign_29"
  input: "^save/Assign_3"
  input: "^save/Assign_30"
  input: "^save/Assign_31"
  input: "^save/Assign_32"
  input: "^save/Assign_33"
  input: "^save/Assign_34"
  input: "^save/Assign_35"
  input: "^save/Assign_36"
  input: "^save/Assign_37"
  input: "^save/Assign_38"
  input: "^save/Assign_39"
  input: "^save/Assign_4"
  input: "^save/Assign_40"
  input: "^save/Assign_41"
  input: "^save/Assign_42"
  input: "^save/Assign_43"
  input: "^save/Assign_44"
  input: "^save/Assign_45"
  input: "^save/Assign_46"
  input: "^save/Assign_47"
  input: "^save/Assign_48"
  input: "^save/Assign_49"
  input: "^save/Assign_5"
  input: "^save/Assign_50"
  input: "^save/Assign_51"
  input: "^save/Assign_52"
  input: "^save/Assign_53"
  input: "^save/Assign_54"
  input: "^save/Assign_55"
  input: "^save/Assign_56"
  input: "^save/Assign_57"
  input: "^save/Assign_58"
  input: "^save/Assign_59"
  input: "^save/Assign_6"
  input: "^save/Assign_60"
  input: "^save/Assign_61"
  input: "^save/Assign_62"
  input: "^save/Assign_63"
  input: "^save/Assign_64"
  input: "^save/Assign_65"
  input: "^save/Assign_66"
  input: "^save/Assign_67"
  input: "^save/Assign_68"
  input: "^save/Assign_69"
  input: "^save/Assign_7"
  input: "^save/Assign_70"
  input: "^save/Assign_71"
  input: "^save/Assign_72"
  input: "^save/Assign_73"
  input: "^save/Assign_74"
  input: "^save/Assign_75"
  input: "^save/Assign_76"
  input: "^save/Assign_77"
  input: "^save/Assign_78"
  input: "^save/Assign_79"
  input: "^save/Assign_8"
  input: "^save/Assign_80"
  input: "^save/Assign_81"
  input: "^save/Assign_82"
  input: "^save/Assign_83"
  input: "^save/Assign_84"
  input: "^save/Assign_85"
  input: "^save/Assign_86"
  input: "^save/Assign_87"
  input: "^save/Assign_88"
  input: "^save/Assign_89"
  input: "^save/Assign_9"
  input: "^save/Assign_90"
  input: "^save/Assign_91"
  input: "^save/Assign_92"
  input: "^save/Assign_93"
  input: "^save/Assign_94"
  input: "^save/Assign_95"
  input: "^save/Assign_96"
  input: "^save/Assign_97"
  input: "^save/Assign_98"
  input: "^save/Assign_99"
  device: "/device:CPU:1"
}
node {
  name: "save/restore_all"
  op: "NoOp"
  input: "^save/restore_all/NoOp"
  input: "^save/restore_all/NoOp_1"
}
versions {
  producer: 26
}
